saved_model_nn.pth (torch, 18025 bytes, 5 tensors)

net.0.weight f4 [64, 24]
0.013022841 0.112612486 0.055523958 0.39959693 0.016287856 0.039468776 -0.08524829 0.730638
0.4503587 -0.106878415 0.14789318 0.06407065 0.2014034 -0.124071024 -0.05369358 -0.008842612
0.037117936 -0.016927978 0.0058469754 -0.026495136 0.079786964 0.03800384 -0.04915643 0.060005274
0.025721183 -0.05324207 -0.010040257 -0.13582887 -0.033176057 -0.028715633 0.20853034 0.24893638
0.37859458 0.054986324 -0.08543458 0.21309057 -0.037702262 0.19000122 0.04755766 0.026036566
0.11534304 0.2743161 0.30951864 0.16605727 -0.051913157 0.008784036 0.0546681 -0.020213835
0.021054136 -0.048756268 -0.14705934 -0.10547006 -0.62628096 0.04054029 0.08694591 0.5504022
0.12139309 0.09143684 0.1297305 0.18466201 -0.13125528 -0.079932585 0.12249083 -0.012501167
-0.015170947 0.19980948 0.12900586 0.034501433 -0.1724395 -0.01880436 -0.057373084 -0.06417174
0.073042 -0.084883414 -0.33859032 -0.05547055 -0.06481304 0.021393463 0.16771115 0.74680954
-0.03501467 -0.0743073 0.054733343 0.057547543 0.5284125 -0.090937726 0.07376532 0.020809466
-0.066911615 0.091901354 0.09632479 0.023175312 -0.034427743 -0.017662032 -0.09544718 -0.06481996
0.20346232 -0.017902624 0.032333754 -0.093256794 -0.031373113 0.0037816886 -0.01705173 -0.26171693
-0.11429313 -0.08673252 -0.14705408 -0.33938393 -0.20714317 -0.32918376 0.005080898 0.08618722
0.07628026 -0.32884258 -0.27842072 -0.08724463 0.15197353 0.06517188 -0.012089328 0.0042735166
0.078050524 -0.017125942 0.07572777 0.15143743 0.026645886 0.042523403 -0.06170038 -0.18160996
-0.063837014 0.01506477 -0.022327881 -0.16938101 -0.24951397 0.025273858 -0.1718188 0.029858898
-0.28823066 -0.25430027 -0.1909211 -0.01975231 0.09942609 0.053033415 -0.0072496333 -0.04328272
-0.1723477 0.13551413 0.08829619 0.21910915 0.25998318 0.073607095 -0.095057584 -0.2002926
-0.15948212 -0.11764107 -0.011386376 -0.28236717 -0.10111426 -0.06429293 -0.069625944 0.036895666
-0.007386324 -0.13947676 -0.12742583 -0.33210978 0.24632426 0.034002386 0.038227633 0.16708967
0.027739484 -0.13582298 -0.02397481 -0.13282533 0.22816491 -0.14240287 0.040737208 0.33591455
-0.27189994 0.13419597 0.2466726 0.06528798 0.20640816 0.04096676 -0.02743617 0.026295349
0.054831326 0.22670077 0.07696311 0.074704394 -0.1372101 -0.0103815645 -0.0123016825 -0.094789654
-0.011445889 0.0509684 0.023352679 0.05630098 0.06783864 0.01309234 0.0014053034 -0.065468565
-0.15561566 -0.2074599 0.20449723 0.016432256 -0.2626753 -0.26823598 -0.26982626 -0.20108773
0.043136563 -0.23455462 -0.14731798 0.060353138 -0.12211306 0.014859769 0.02332526 0.21777917
0.030385029 -0.033355553 0.07803862 0.13428774 0.055341415 0.067278765 -0.08754191 -0.09206241
-0.23845601 0.06039859 0.09414696 -0.09770489 -0.2326168 -0.38336778 -0.34753913 0.18788236
0.14475144 -0.10049348 -0.04365631 0.05758501 0.05097233 -0.030876493 -0.04744058 -0.029808609
0.019778894 -0.21597838 0.020950073 -0.21079342 -0.24144483 -0.23914267 -0.19305153 0.5534912
0.14688067 0.14604206 -0.029007137 0.16577566 -0.24058488 0.017487347 0.054482073 0.012585764
00000000: c15d 553c 60a1 e63d 176d 633d f897 cc3e
00000010: 1c6e 853c 03aa 213d a896 aebd 180b 3b3f
00000020: 6a95 e63e 12e3 dabd 4f71 173e 7937 833d
00000030: b13c 4e3e f318 febd cded 5bbd 9ae0 10bc
00000040: fa08 183d 8bac 8abc fc97 bf3b 540c d9bc
00000050: 5967 a33d eaa9 1b3d 4158 49bd 17c8 753d
00000060: 3bb5 d23c 5b14 5abd e47f 24bc b916 0bbe
00000070: 9ee3 07bd 0c3d ebbc fa88 553e 2ee9 7e3e
00000080: 26d7 c13e 5739 613d 53f8 aebd 6a34 5a3e
00000090: b06d 1abd ae8f 423e d2cb 423d a34a d53c
000000a0: f938 ec3d 2973 8c3e 3a79 9e3e eb0a 2a3e
000000b0: e4a2 54bd ebea 0f3c a8eb 5f3d 7c97 a5bc
000000c0: b979 ac3c a7b4 47bd b996 16be b000 d8bd
000000d0: f353 20bf 930d 263d b210 b23d 29e7 0c3f
000000e0: f19c f83d 3d43 bb3d 12d8 043e 0a18 3d3e
000000f0: c967 06be b2b3 a3bd 79dc fa3d b2d1 4cbc
00000100: 908f 78bc db9a 4c3e 1d1a 043e 6051 0d3d
00000110: fb93 30be 9a0b 9abc 0a00 6bbd 796c 83bd
00000120: 0b97 953d 5bd7 adbd b65b adbe 1635 63bd
00000130: b3bc 84bd 5841 af3c 79bc 2b3e e92e 3f3f
00000140: 8b6b 0fbd 6d2e 98bd 1230 603d f9b6 6b3d
00000150: 0b46 073f 8f3d babd 4612 973d 9d78 aa3c
00000160: f508 89bd c736 bc3d ee45 c53d 27da bd3c
00000170: 1b04 0dbd f7af 90bc d079 c3bd 54c0 84bd
00000180: 6d58 503e 86a8 92bc 6670 043d 6bfd bebd
00000190: 1881 00bd 35d6 773b 12b0 8bbc c3ff 85be
000001a0: 8412 eabd d2a0 b1bd 5895 16be bbc3 adbe
000001b0: 571d 54be c68a a8be a97d a63b ed82 b03d
000001c0: d338 9c3d 0e5e a8be 298d 8ebe 50ad b2bd
000001d0: f39e 1b3e d678 853d 5112 46bc db08 8c3b
000001e0: f4d8 9f3d b44b 8cbc 2917 9b3d 6a12 1b3e
000001f0: 7948 da3c 052d 2e3d 8ab9 7cbd f6f7 39be
00000200: fbbc 82bd 3ad2 763c f6e8 b6bc 3772 2dbe
00000210: 9780 7fbe 1f0b cf3c 44f1 2fbe a69a f43c
00000220: f892 93be a533 82be d280 43be 99cf a1bc
00000230: e89f cb3d 9139 593d 558e edbb 3949 31bd
00000240: ea7b 30be 37c4 0a3e a2d4 b43d 265e 603e
00000250: 841c 853e 51bf 963d 8dad c2bd 8119 4dbe
00000260: 484f 23be cded f0bd ec8d 3abc 6e92 90be
00000270: fe14 cfbd 03ac 83bd 0c98 8ebd e91f 173d
00000280: fa08 f2bb ffd2 0ebe eb7b 02be 4b0a aabe
00000290: 6d3c 7c3e 1646 0b3d 9494 1c3d 8e19 2b3e
000002a0: ea3d e33c 2e15 0bbe d266 c4bc 5d03 08be
000002b0: 10a4 693e 0fd2 11be 0fdc 263d fefc ab3e
000002c0: 7836 8bbe ab6a 093e be97 7c3e b4b5 853d
000002d0: a95c 533e c3cc 273d d2c1 e0bc 5869 d73c
000002e0: d096 603d 3f24 683e d69e 9d3d 9efe 983d
000002f0: ce80 0cbe 7017 2abc ff8c 49bc 1421 c2bd
00000300: 8a87 3bbc 3ec4 503d 1e4e bf3c db9b 663d
00000310: fcee 8a3d 4181 563c 2832 b83a 6214 86bd
00000320: b659 1fbe 5e70 54be b967 513e f09c 863c
00000330: 607d 86be 3a56 89be ab26 8abe f1e9 4dbe
00000340: f7af 303d 162f 70be 86da 16be da34 773d
00000350: 6916 fabd 6376 733c 9e14 bf3c 8101 5f3e
00000360: 06ea f83c d59f 08bd b6d2 9f3d ba82 093e
00000370: aead 623d 73c9 893d 2c49 b3bd 388b bcbd
00000380: d02d 74be 8364 773d 1fd0 c03d 8019 c8bd
00000390: 1933 6ebe c848 c4be a6f0 b1be 3c64 403e
000003a0: b939 143e 87cf cdbd f5d0 32bd 42de 6b3d
000003b0: 5dc8 503d b3f0 fcbc 0e51 42bd 2f31 f4bc
000003c0: 5907 a23c 7029 5dbe 7d9f ab3c 3bda 57be
000003d0: 503d 77be d1e1 74be 4daf 45be 99b1 0d3f
000003e0: e367 163e 0d8c 153e 60a0 edbc 18c1 293e
000003f0: e25b 76be a041 8f3c 9828 5f3d 8534 4e3c

net.0.bias f4 [64]
-0.49589348 -0.35289037 -0.36867702 -0.41234347 0.019566732 0.26766422 0.20620614 -0.16210532
0.0652194 0.01693635 -0.2443325 -0.04350875 -0.44235745 -0.105656706 0.07753875 -0.07559729
0.101375654 -0.4187091 0.15970053 -0.4555649 -0.20272273 -0.6816946 -0.1660344 -0.4039578
-0.22849172 -0.32019952 0.14240557 -0.19023123 -0.037569534 -0.076042555 0.2056778 -0.25202924
0.013624626 -0.17568642 0.17550458 -0.16386788 -0.3935029 -0.70202124 -0.04047053 -0.0473746
-0.29404694 -0.010968869 -0.044876087 -0.0010376894 -0.3062792 -0.27138272 -0.10876125 0.09876898
0.106728785 0.1923276 -0.2995302 0.110241145 -0.067539446 0.23475213 -0.42403552 -0.22855224
-0.018839346 -0.5194354 0.18459877 -0.11125136 -0.28328645 -0.33479232 -0.35674518 0.18077804
00000000: c0e5 fdbe 0cae b4be 3cc3 bcbe af1e d3be
00000010: 694a a03c 490b 893e b427 533e f0fe 25be
00000020: c091 853d 1abe 8a3c 4d32 7abe 3b36 32bd
00000030: ad7c e2be 8b62 d8bd a3cc 9e3d c1d2 9abd
00000040: 0a9e cf3d 0a61 d6be 8988 233e cd3f e9be
00000050: 8c96 4fbe 8a83 2ebf ec04 2abe 8fd3 cebe
00000060: bcf9 69be 31f1 a3be c4d2 113e facb 42be
00000070: 83e2 19bd 33bc 9bbd 349d 523e fa09 81be
00000080: d339 5f3c 24e7 33be 79b7 333e fbcc 27be
00000090: 3679 c9be aab7 33bf 6dc4 25bd de0b 42bd
000000a0: 528d 96be c5b6 33bc fdcf 37bd 1403 88ba
000000b0: a1d0 9cbe adf2 8abe 38be debd 6447 ca3d
000000c0: 9f94 da3d 87f1 443e 065c 99be 1cc6 e13d
000000d0: 1f52 8abd dd62 703e 2f1b d9be 9909 6abe
000000e0: f954 9abc b8f9 04bf 7607 3d3e c1d7 e3bd
000000f0: ec0a 91be e669 abbe 4ea7 b6be e11d 393e

net.3.weight f4 [32, 64]
0.16327938 0.26952276 0.079568416 0.29479858 -0.050079785 0.081203975 -0.34388655 0.087530985
-0.12351976 0.058521017 0.06461405 0.050472002 0.16611081 -0.15506451 -0.05515401 -0.17543308
0.0058914535 0.0716646 -0.21933284 0.12211926 0.24439113 0.18783021 -0.048187047 0.17716609
0.2195812 0.124495134 -0.07236188 -0.06670316 -0.021889575 0.15462041 -0.15610866 0.14643154
-0.20640878 0.09246885 -0.23294123 -0.029829854 0.103070535 0.27244207 -0.007334237 -0.04220141
0.27260065 -0.07947539 -0.26569355 -0.19028072 0.130393 0.082692035 -0.11799899 -0.21672522
-0.10634227 -0.31356275 0.21368733 -0.04470169 0.098431416 -0.111841924 0.33248362 -0.07531552
0.057973627 0.105146155 -0.10054201 -0.03461085 0.12059435 0.20928365 0.111288324 -0.094065115
0.13437219 0.14542314 0.18132007 0.31475025 -0.002583932 -0.017865876 -0.056554586 0.09499679
-0.07788144 0.04525276 0.11490015 -0.04060314 0.2762687 -0.06977619 -0.0126500325 -0.068385765
-0.037059132 0.13981347 0.08258973 0.19454809 0.15637532 0.36235464 -0.19715789 0.074068554
0.028118702 0.0916955 -0.055102 -0.049563587 -0.11088301 0.13153209 -0.15409695 0.13893166
-0.12323681 0.15481363 -0.14850487 -0.012332305 0.13144565 0.35303125 0.13281111 -0.029954322
0.113361545 -0.036219344 0.027418952 0.002150006 0.110373735 0.13567953 -0.0072515174 0.070070826
-0.068011776 -0.07635202 0.23022626 -0.03185888 0.06593054 0.06122156 0.3748314 0.049880464
-0.07647434 0.19873905 -0.03922781 -0.16936088 0.15434119 0.25271124 0.238434 -0.07881446
-0.12920593 -0.16103822 -0.21914516 -0.08328231 0.09337436 0.02867165 0.09647104 0.005253133
0.0024400102 -0.035561748 -0.09114609 0.15252642 -0.20136864 0.10936798 0.021206792 0.115341455
0.12039071 -0.091107346 0.1559316 -0.071039304 -0.086387336 -0.3046362 0.066153176 -0.037666015
-0.21153373 -0.0787989 0.061716937 -0.122967824 0.19601956 -0.033075746 0.13215205 -0.056621052
-0.027196702 -0.12364961 -0.043176368 -0.13802236 -0.29519638 -0.3740847 0.03674839 0.13241282
-0.1452212 0.15467496 0.058171775 0.032421496 -0.2506058 -0.20832253 0.16052902 0.073771685
0.061688196 -0.0015504636 -0.06638165 -0.026840737 -0.09627653 0.044870257 -0.3291258 -0.15570337
0.06386341 -0.18090065 0.0759679 0.10449838 -0.23875836 -0.2049996 -0.18997312 -0.07118223
-0.34942776 -0.12814632 -0.43705294 -0.35747918 0.07873648 -0.024613498 0.10195209 -0.07048534
-0.05158488 -0.019538125 -0.261474 0.052057102 -0.24919441 -0.010438231 0.009926384 0.039294794
0.107049495 -0.23765677 0.056460258 -0.41720143 -0.2978509 -0.24878296 -0.0065785274 -0.18211333
-0.31543058 -0.32108334 0.0020648218 -0.111763395 -0.050076004 0.051739853 0.0016918037 -0.10596502
0.09172211 -0.33101964 0.09688501 -0.25663188 -0.45004848 -0.26080889 0.048962682 0.016181653
-0.37797228 -0.042525027 0.16254126 0.09343027 -0.28954002 -0.28986472 0.06776196 0.05129075
-0.011776815 0.11733316 -0.22257946 0.010959783 -0.4136748 0.016411671 -0.22744115 -0.32505086
0.077997126 -0.36667952 0.13540334 0.0024770873 -0.2026202 -0.11346368 -0.31809255 0.10314362
00000000: b632 273e e3fe 893e c4f4 a23d d7ef 963e
00000010: 7620 4dbd 454e a63d e611 b0be 7243 b33d
00000020: eef7 fcbd bcb3 6f3d 5f54 843d bbbb 4e3d
00000030: f418 2a3e 3bc9 1ebe 2ce9 61bd bba4 33be
00000040: 180d c13b e4c4 923d ca98 60be aa19 fa3d
00000050: ab41 7a3e 9056 403e c85f 45bd 076b 353e
00000060: e5d9 603e 4ef7 fe3d 7732 94bd ab9b 88bd
00000070: c451 b3bc d054 1e3e f3da 1fbe 26f2 153e
00000080: d35c 53be 4f60 bd3d 2588 6ebe bd5d f4bc
00000090: a516 d33d 877d 8b3e 0a54 f0bb 63db 2cbd
000000a0: 5092 8b3e fec3 a2bd fc08 88be f3d8 42be
000000b0: be85 053e 715a a93d 74a9 f1bd 37ed 5dbe
000000c0: fac9 d9bd 4c8b a0be dad0 5a3e 1f19 37bd
000000d0: 6996 c93d 610d e5bd 4b3b aa3e 063f 9abd
000000e0: c175 6d3d de56 d73d f8e8 cdbd 1bc4 0dbd
000000f0: 2cfa f63d 744e 563e 22eb e33d 36a5 c0bd
00000100: dd98 093e cee9 143e f8ab 393e f226 a13e
00000110: 2f57 29bb 755b 92bc c8a5 67bd ad8d c23d
00000120: 4e80 9fbd f55a 393d c550 eb3d 7a4f 26bd
00000130: 1773 8d3e d2e6 8ebd 1542 4fbc d60d 8cbd
00000140: 51cb 17bd 432b 0f3e ce24 a93d 9d37 473e
00000150: da20 203e 8c86 b93e c2e3 49be 41b1 973d
00000160: 3159 e63c daca bb3d a2b2 61bd 3003 4bbd
00000170: a216 e3bd 59b0 063e 97cb 1dbe 1a44 0e3e
00000180: 9563 fcbd 7787 1e3e a911 18be 700d 4abc
00000190: b099 063e 83c0 b43e a3ff 073e c462 f5bc
000001a0: 192a e83d bc5a 14bd b69d e03c 1de7 0c3b
000001b0: a00b e23d 93ef 0a3e 239e edbb 4b81 8f3d
000001c0: c249 8bbd 735e 9cbd 6fc0 6b3e 757e 02bd
000001d0: 9706 873d 75c3 7a3d e7e9 bf3e 754f 4c3d
000001e0: 949e 9cbd 4082 4b3e 57ad 20bd f06c 2dbe
000001f0: 9e0b 1e3e 5e63 813e 0b28 743e 7a69 a1bd
00000200: 8f4e 04be 34e7 24be 9767 60be ea8f aabd
00000210: 0e3b bf3d cfe0 ea3c 9c92 c53d 7922 ac3b
00000220: 94e8 1f3b 32a9 11bd cdaa babd e32f 1c3e
00000230: 9533 4ebe 52fc df3d deb9 ad3c 2438 ec3d
00000240: 688f f63d 7d96 babd 89ac 1f3e 0e7d 91bd
00000250: d8eb b0bd 47f9 9bbe 517b 873d ae47 1abd
00000260: 4c9c 58be 5161 a1bd e6ca 7c3d 8ed6 fbbd
00000270: 5ab9 483e 6f7a 07bd de52 073e 7aeb 67bd
00000280: 9ecb debc 023c fdbd b4d9 30bd bc55 0dbe
00000290: fb23 97be 0888 bfbe 7b85 163d 3a97 073e
000002a0: deb4 14be 1d63 1e3e 8745 6e3d 67cc 043d
000002b0: 674f 80be 8052 55be b861 243e 9c15 973d
000002c0: c3ac 7c3d ed38 cbba 1af3 87bd 1be1 dbbc
000002d0: a12c c5bd e0c9 373d 2d83 a8be b470 1fbe
000002e0: d2ca 823d 053e 39be 0f95 9b3d 3f03 d63d
000002f0: 127d 74be 6aeb 51be 5088 42be fdc7 91bd
00000300: 32e8 b2be ca38 03be 67c5 dfbe 8307 b7be
00000310: 9740 a13d 3fa2 c9bc 42cc d03d 9e5a 90bd
00000320: ab4a 53bd 6b0e a0bc ecdf 85be d439 553d
00000330: d22c 7fbe 1d05 2bbc 46a2 223c 94f3 203d
00000340: c43c db3d 4c5c 73be df42 673d 6d9b d5be
00000350: ea7f 98be f6c0 7ebe b090 d7bb eb7b 3abe
00000360: 1e80 a1be 0965 a4be f651 073b 35e4 e4bd
00000370: 7f1c 4dbd 2bed 533d 83bf dd3a 3004 d9bd
00000380: cdd8 bb3d 687b a9be a66b c63d 4165 83be
00000390: c16c e6be be88 85be 188d 483d 638f 843c
000003a0: 9585 c1be b92e 2ebd 3771 263e 5f58 bf3d
000003b0: 973e 94be 2669 94be c8c6 8a3d 4016 523d
000003c0: 8bf3 40bc 5e4c f03d dfeb 63be a990 333c
000003d0: 2fcd d3be c571 863c 55e6 68be 116d a6be
000003e0: f5bc 9f3d 6bbd bbbe 2ca7 0a3e a156 223b
000003f0: ab7b 4fbe a55f e8bd 07dd a2be f63c d33d

net.3.bias f4 [32]
0.09503972 -0.084069535 0.37045106 0.17588292 0.37422773 0.2833446 0.3214444 0.23925607
-0.1984739 -0.26361558 0.3565947 0.30766863 0.09061136 -0.24180552 0.29042876 0.22771907
-0.23685107 -0.16506025 -0.14539485 -0.21138544 0.13015786 0.3669533 0.16439334 -0.1953296
0.46889475 -0.14677589 0.36233762 -0.2357798 0.07313362 -0.27041343 0.35290214 0.23691115
00000000: 2fa4 c23d a62c acbd c3ab bd3e a71a 343e
00000010: c79a bf3e 8b12 913e 5c94 a43e 8bff 743e
00000020: be3c 4bbe 9ff8 86be 9593 b63e be86 9d3e
00000030: 7392 b93d de9b 77be 14b3 943e 302f 693e
00000040: 1689 72be 8e05 29be 63e2 14be 6d75 58be
00000050: 1a48 053e 4ee1 bb3e ba56 283e 7c04 48be
00000060: f912 f03e 6b4c 16be 5184 b93e 4370 71be
00000070: 14c7 953d a173 8abe 97af b43e d698 723e

net.6.weight f4 [1, 32]
-0.2843227 -0.23679079 0.19361784 0.5653881 0.21624218 0.27845147 0.58542037 0.52160895
-0.19299002 -0.2785874 0.4634402 0.21305582 -0.52593154 -0.295291 0.19972113 0.3424668
-0.4788644 -0.21228805 -0.19585223 -0.2973098 -0.36785752 0.539276 0.5693777 -0.2870353
0.19276349 -0.33864707 0.26686198 -0.39281 -0.57474655 -0.419842 0.19969107 0.39088818
00000000: bf92 91be 4979 72be c143 463e 46bd 103f
00000010: 976e 5d3e 3191 8e3e 1cde 153f 2a88 053f
00000020: 2d9f 45be 02a3 8ebe 0948 ed3e 4e2b 5a3e
00000030: 73a3 06bf 6230 97be b283 4c3e cf57 af3e
00000040: b72d f5be 0a62 59be 7d8d 48be fd38 98be
00000050: d257 bcbe fe0d 0a3f bdc2 113f 4af6 92be
00000060: cb63 453e 2663 adbe 22a2 883e 641e c9be
00000070: 9722 13bf 88f5 d6be d17b 4c3e 7f22 c83e
