saved_baseline_model_nn.pth (torch, 18197 bytes, 5 tensors)

net.0.weight f4 [64, 24]
0.10489643 0.06061681 0.04136077 0.27498403 0.0025983714 0.03353856 -0.2144221 0.1780162
-0.088508494 -0.05195243 0.10688493 0.030926228 -0.14397733 -0.1720001 -0.10117371 0.032747913
0.13886558 -0.17706278 -0.31165084 0.08111583 -0.14702344 0.0723705 -0.0049632704 0.12728328
-0.08652132 -0.6231705 0.0056555015 -0.15333566 0.049265962 -0.11319038 0.1551518 0.15779835
0.111800455 0.06998334 -0.023187894 0.27179554 -0.06696753 0.22877978 0.08677262 -0.016660014
-0.0020411052 0.29469886 0.2783233 0.094711386 -0.14080855 -0.0031718637 0.060558405 -0.071805924
0.04756365 -0.33043694 -0.09230561 -0.07584227 -0.5565917 0.006194034 0.13712932 0.4431075
0.13264833 0.04431717 0.1149069 0.1922707 -0.024951158 -0.03596105 0.1666391 -0.03160934
0.01483548 0.20941557 0.1607407 0.010871532 -0.18207528 -0.028441546 -0.06993076 -0.074872896
0.09210201 -0.063183635 -0.35346812 -0.055488244 -0.07825411 0.0020806617 0.20727207 0.80223596
-0.05432874 -0.027872054 0.033649635 0.036993153 0.56488824 -0.091686465 0.07370561 0.03926946
-0.05416351 0.10232283 0.041108694 0.07195746 -0.032774467 -0.029013613 -0.030472256 -0.080026165
0.11990483 0.024859726 0.08598735 -0.15652898 0.002552805 0.06035833 0.10974104 -0.2678526
-0.1518239 -0.11590927 -0.027613776 -0.3440762 -0.2085829 -0.27807072 0.055658404 0.023558926
0.01727358 -0.4132021 -0.39424634 -0.0114274835 0.12639077 0.11754026 -0.028667958 0.03209056
0.08967658 -0.11197524 0.024080424 -0.1501314 -0.47421962 -0.14447494 0.023355091 0.40234926
0.2588274 0.08090832 0.099615335 0.23285852 -0.23131043 0.13438989 -0.062996686 0.0046460545
-0.04408782 0.29209226 0.23487782 0.07015961 -0.16945611 -0.095177494 -0.06299289 -0.17515914
-0.07538725 -0.0019636662 0.108924255 0.31395563 0.19053614 -0.0006615887 -0.10397 -0.17438509
-0.16972938 -0.10408102 0.045878552 -0.20112477 -0.1287086 -0.107044466 -0.11245483 0.03446097
-0.028671242 -0.22271045 -0.17849073 -0.25215507 0.22391362 -0.0005155508 0.07982142 0.18831411
0.051519543 -0.15319999 -0.061120976 -0.10612481 0.20145825 -0.073951796 0.036678635 0.41484964
-0.24338163 0.11130413 0.21312478 0.1056183 0.37790385 0.082219064 0.013868981 -0.07277095
0.09305942 0.28579465 -0.024450395 0.0029620605 -0.1577542 0.038902912 -0.09053605 -0.0717893
0.010121925 0.08129139 0.05579776 0.27243605 0.03418098 -0.06497219 0.023423215 0.042928927
-0.07748568 -0.1936767 0.13664767 -0.07055969 -0.2283509 -0.21378238 -0.21536258 -0.17288904
0.025568206 -0.15560417 -0.124537334 -0.013375549 -0.19299774 0.011599852 0.089145586 0.21964082
0.021680472 0.017576527 0.09604666 0.11489634 0.059573676 0.07067158 -0.077183545 0.08087013
-0.23620152 -0.051950827 0.06677073 -0.122544706 -0.22080766 -0.38316292 -0.34772167 0.15546702
0.15599127 -0.15732694 -0.0897927 -0.06604594 0.022509318 0.016620182 -0.062297024 0.1097144
0.065128595 -0.022326542 0.077955484 -0.37993345 -0.34395936 -0.22649534 -0.13033162 0.38107115
0.030017152 0.2164035 0.049746204 0.1466285 -0.29285538 0.007681777 0.044445753 -0.02835197
00000000: f1d3 d63d 5549 783d e969 293d b5ca 8c3e
00000010: 7049 2a3b bb5f 093d 7891 5bbe e149 363e
00000020: f143 b5bd 12cc 54bd 7ce6 da3d 0059 fd3c
00000030: cb6e 13be cb20 30be 2934 cfbd ad22 063d
00000040: c732 0e3e f24f 35be b390 9fbe 0e20 a63d
00000050: 508d 16be fc36 943d eea2 a2bb 8c56 023e
00000060: 1732 b1bd 1a88 1fbf c951 b93b 0604 1dbe
00000070: 1bcb 493d 5cd0 e7bd 1de0 1e3e e495 213e
00000080: a3f7 e43d 6d53 8f3d 8af4 bdbc c928 8b3e
00000090: 4626 89bd 3f45 6a3e d8b5 b13d 957a 88bc
000000a0: 10c4 05bb c5e2 963e 6480 8e3e 0bf8 c13d
000000b0: 1e30 10be 0bdf 4fbb 170c 783d fc0e 93bd
000000c0: 1ad2 423d 082f a9be b90a bdbd 3153 9bbd
000000d0: cb7c 0ebf 53f7 ca3b a16b 0c3e fcde e23e
000000e0: f7d4 073e ec85 353d 4f54 eb3d 9ce2 443e
000000f0: 5f66 ccbc e54b 13bd 71a3 2a3e cc78 01bd
00000100: 8310 733c 0971 563e 3699 243e 831e 323c
00000110: f171 3abe 3ffe e8bc dc37 8fbd f656 99bd
00000120: fb9f bc3d 6c66 81bd c6f9 b4be a447 63bd
00000130: b143 a0bd b65b 083b 213f 543e 565f 4d3f
00000140: d087 5ebd ef53 e4bc 33d4 093d 2286 173d
00000150: 849c 103f 1dc6 bbbd f8f2 963d 03d9 203d
00000160: 8fda 5dbd a28e d13d 9761 283d 6f5e 933d
00000170: 853e 06bd f5ad edbc f4a0 f9bc c2e4 a3bd
00000180: aa90 f53d a0a6 cb3c 231a b03d 2249 20be
00000190: f64c 273b 4c3a 773d e9bf e03d fa23 89be
000001a0: b977 1bbe d761 edbd 4936 e2bc c12a b0be
000001b0: c196 55be 495f 8ebe 11fa 633d a6fe c03c
000001c0: 5381 8d3c 3a8f d3be a8da c9be 573a 3bbc
000001d0: 956c 013e f3b8 f03d 11d9 eabc 6471 033d
000001e0: 5ba8 b73d 4653 e5bd 4f44 c53c 0cbc 19be
000001f0: eacc f2be 3df1 13be 2d53 bf3c b900 ce3e
00000200: 0685 843e 43b3 a53d 2003 cc3d 7772 6e3e
00000210: a4dc 6cbe 819d 093e 6804 81bd ee3d 983b
00000220: 6e95 34bd 1e8d 953e d083 703e d7af 8f3d
00000230: e785 2dbe 6bec c2bd 6b02 81bd eb5c 33be
00000240: a164 9abd dab0 00bb ae13 df3d cbbe a03e
00000250: e81b 433e 776e 2dba 39ee d4bd 0192 32be
00000260: 8acd 2dbe 6e28 d5bd 26eb 3b3d a7f3 4dbe
00000270: 30cc 03be 213a dbbd b84e e6bd f226 0d3d
00000280: f4df eabc 350e 64be 46c6 36be 781a 81be
00000290: 9d49 653e 0726 07ba 6a79 a33d 6ad5 403e
000002a0: 2806 533d 75e0 1cbe fd59 7abd f757 d9bd
000002b0: 124b 4e3e 0a74 97bd 563c 163d 2c67 d43e
000002c0: 0939 79be 6bf3 e33d 623d 5a3e 684e d83d
000002d0: 9d7c c13e 7862 a83d b93a 633c f008 95bd
000002e0: f095 be3d ad53 923e 324c c8bc 211f 423b
000002f0: 518a 21be a958 1f3d f76a b9bd 4506 93bd
00000300: 6ed6 253c 1a7c a63d 318c 643d bd7c 8b3e
00000310: 5b01 0c3d 2410 85bd 0be2 bf3c 3ed6 2f3d
00000320: d0b0 9ebd 2f53 46be 5eed 0b3e 9981 90bd
00000330: d1d4 69be c5e9 5abe 0288 5cbe d309 31be
00000340: 6a74 d13c b356 1fbe 6e0d ffbd 1e25 5bbc
00000350: 33a1 45be 4e0d 3e3c f691 b63d 86e9 603e
00000360: 3f9b b13c a6fc 8f3c 1cb4 c43d c64e eb3d
00000370: 8703 743d 43bc 903d 6812 9ebd 3d9f a53d
00000380: d0de 71be 64ca 54bd 18bf 883d b8f8 fabd
00000390: 671b 62be ee2d c4be 9308 b2be bf32 1f3e
000003a0: 2dbc 1f3e 501a 21be 3ce5 b7bd 1843 87bd
000003b0: 7665 b83c 0c27 883c 2a2b 7fbd f1b1 e03d
000003c0: 2462 853d 27e6 b6bc 20a7 9f3d a386 c2be
000003d0: 711b b0be 65ee 67be a775 05be c21b c33e
000003e0: 88e6 f53c e198 5d3e adc2 4b3d c825 163e
000003f0: 24f1 95be 6ab7 fb3b c00c 363d 6442 e8bc

net.0.bias f4 [64]
-0.06513479 -0.2669448 -0.26316464 -0.45132706 0.0027108502 -0.24942908 0.14224106 -0.2097396
-0.043094486 -0.18167877 -0.069179274 0.09739724 -0.30168054 -0.14674318 -0.008186982 -0.1973343
0.08275525 -0.44352177 0.141449 -0.32946792 -0.23127276 -0.6863083 -0.37841126 -0.6381858
-0.19685298 -0.20040011 0.1332525 -0.1439537 -0.28176084 -0.10800309 0.14972365 -0.19606961
0.03647624 -0.13992494 0.14514056 -0.14854638 -0.44755778 -0.702455 -0.12475222 -0.0929326
-0.34448144 -0.025320224 -0.062939554 0.021750156 -0.25521883 -0.1761361 -0.16678624 0.075651795
0.023219025 0.11123316 -0.2660858 0.062399358 -0.09168646 0.23425737 -0.430448 -0.2712686
-0.33272257 -0.5322003 0.14102294 -0.33935735 -0.19109026 -0.22916518 -0.40588507 0.032124884
00000000: 6465 85bd fdac 88be 84bd 86be 5714 e7be
00000010: 85a8 313b 566a 7fbe a4a7 113e fac5 56be
00000020: d883 30bd 000a 3abe ddad 8dbd 3478 c73d
00000030: df75 9abe d843 16be b122 06bc 0112 4abe
00000040: 967b a93d 4915 e3be 02d8 103e 05b0 a8be
00000050: c4d2 6cbe e7b1 2fbf 1fbf c1be 2560 23bf
00000060: d493 49be b035 4dbe 5873 083e 9968 13be
00000070: f542 90be b930 ddbd 2851 193e 79c6 48be
00000080: 1c68 153d 7c48 0fbe ba9f 143e 8b1c 18be
00000090: 4b26 e5be 17d4 33bf 187e ffbd 7253 bebd
000000a0: df5f b0be 5c6c cfbc 74e6 80bd 622d b23c
000000b0: 0bac 82be 065d 34be 03ca 2abe 54ef 9a3d
000000c0: d335 be3c 36ce e33d 663c 88be 7896 7f3d
000000d0: 1cc6 bbbd 2ae1 6f3e ae63 dcbe b8e3 8abe
000000e0: 9d5a aabe 473e 08bf 5168 103e 3fc0 adbe
000000f0: 2aad 43be 47aa 6abe 2bd0 cfbe 6295 033d

net.3.weight f4 [32, 64]
-0.24880771 0.10568674 0.033861212 0.21603389 -0.24533582 0.25510794 -0.3495686 0.19928041
-0.045651093 0.026195616 0.20869519 -0.035713084 0.08602304 -0.066173464 -0.023241254 -0.22837022
0.032113127 0.16435902 -0.12762973 0.15824239 0.14472683 0.24902242 -0.16475591 0.35898557
0.275584 0.06820637 0.020124419 0.15303889 0.16789591 -0.023512978 -0.058992323 0.054596264
-0.25183913 0.15339269 -0.3623045 0.0333908 0.081808195 0.32268876 -0.022290675 0.044888403
0.18638398 -0.06669661 -0.099651754 -0.10932874 0.04011088 0.06887883 0.1447858 -0.2929705
-0.15844059 -0.1897361 0.119088456 -0.1929783 0.07539096 -0.11418989 0.34652176 -0.007694628
0.15340678 0.010776967 -0.12262464 -0.19227925 0.16090766 0.24057198 0.3990256 -0.09093801
-0.041797344 0.11509542 0.03222577 0.39942762 -0.09431985 0.040932313 -0.0077821007 0.10719602
0.011927952 -0.061275903 0.0876172 0.0077653658 0.15482025 0.018920194 0.05223278 -0.11252153
0.04235173 0.14766924 0.021794094 0.3047364 0.2516155 0.3651977 -0.21322915 0.40036386
0.09511598 0.077510454 -0.054096073 0.025211452 0.17626044 0.13079013 -0.04778934 0.015983976
0.029485343 0.060039762 -0.044053502 0.010616542 0.2545228 0.46226835 0.14863987 -0.021722876
0.23481137 -0.049581897 0.002899504 0.05179398 0.050799906 0.25570786 0.012103779 0.018839024
0.0015984458 0.0353832 0.20003118 -0.005522345 0.09045216 0.0051683513 0.36840189 0.12555993
0.10748696 0.24156775 -0.074934416 -0.21417984 0.073380426 0.21363327 0.26805425 -0.058314487
0.11200938 -0.25537235 -0.09204617 -0.26441377 0.047309272 -0.122944854 0.10422655 -0.07658941
0.055285655 -0.035989545 -0.054011147 0.089819126 -0.25379813 0.146817 0.022760699 0.13464236
0.027803034 -0.22715275 0.116729096 -0.09562681 -0.25098747 -0.37283373 0.12042669 -0.15384193
-0.2528883 -0.020702492 0.012441092 -0.06365651 0.00032318846 -0.056707688 0.06961896 -0.007823236
0.0077319257 -0.115364775 -0.094526246 -0.077653274 -0.40201712 -0.4020777 0.0069657573 0.101497486
-0.22560589 0.14409299 0.0664357 0.009042568 -0.2786172 -0.23364295 0.17431597 0.058130004
0.06430847 0.01083325 -0.20516133 -0.0062962193 -0.13985702 -0.035513256 -0.37617362 -0.23245849
-0.10646435 -0.18652195 0.12970251 0.14473292 -0.22705388 -0.15353696 -0.40756688 -0.07453724
-0.021565085 -0.24489453 -0.31095928 -0.49490148 0.069666035 -0.30678117 0.044555265 -0.032652624
-0.08417335 0.062040977 -0.29069787 -0.022187645 -0.07010565 -0.11736885 -0.064491585 0.1883189
0.051955294 -0.2055926 0.027778467 -0.41910905 -0.46023414 -0.35477504 0.091047496 -0.22596875
-0.35540852 -0.3144662 -0.031442497 -0.34374204 -0.16999538 -0.016505508 0.051084068 -0.27620426
0.09147191 -0.40962967 0.09395113 -0.35019812 -0.47249824 -0.35620973 0.049740694 0.009492624
-0.40691745 -0.037007112 0.113309905 0.09252313 -0.37282193 -0.30945697 0.07357671 0.040343717
0.019961854 0.1416308 -0.27665144 0.052092124 -0.28272167 0.011135158 -0.34264612 -0.25460294
-0.32981965 -0.32868528 0.07493474 -0.022868149 -0.12626562 -0.19506525 -0.19297166 0.13602859
00000000: 73c7 7ebe 4a72 d83d 0eb2 0a3d fd37 5d3e
00000010: 5039 7bbe 829d 823e a8fa b2be 2a10 4c3e
00000020: a4fc 3abd 3098 d63c 31b4 553e e247 12bd
00000030: d92c b03d f485 87bd 7164 bebc e2d9 69be
00000040: 0e89 033d bb4d 283e 5eb1 02be 4b0a 223e
00000050: 4533 143e bcff 7e3e c6b5 28be f5cc b73e
00000060: 5919 8d3e c8af 8b3d f7db a43c 3ab6 1c3e
00000070: e8ec 2b3e 4a9e c0bc efa1 71bd 55a0 5f3d
00000080: 0ff1 80be f912 1d3e fa7f b9be cbc4 083d
00000090: 0e8b a73d 7637 a53e ef9a b6bc e7dc 373d
000000a0: 71db 3e3e 3b98 88bd 3816 ccbd bfe7 dfbd
000000b0: 4e4b 243d 5810 8d3d bb42 143e 3b00 96be
000000c0: 403e 22be 2e4a 42be a6e4 f33d 1a9c 45be
000000d0: 9366 9a3d 64dc e9bd 4d6b b13e 3823 fcbb
000000e0: ab16 1d3e e091 303c a122 fbbd dae4 44be
000000f0: fac4 243e 8058 763e 154d cc3e b53d babd
00000100: b133 2bbd 26b7 eb3d 2bff 033d c781 cc3e
00000110: c42a c1bd a4a8 273d fe00 ffbb 9689 db3d
00000120: 756d 433c 71fc 7abd a670 b33d 9c74 fe3b
00000130: 3389 1e3e 86fe 9a3c 0af2 553d b071 e6bd
00000140: 0279 2d3d 9b36 173e 8789 b23c 6906 9c3e
00000150: bfd3 803e 31fb ba3e be58 5abe 7efc cc3e
00000160: 2bcc c23d cdbd 9e3d d893 5dbd 3f88 ce3c
00000170: 9e7d 343e d9ed 053e c1be 43bd d4f0 823c
00000180: 3f8b f13c 41ec 753d 7271 34bd 01f1 2d3c
00000190: d050 823e 70ae ec3e 0d35 183e 2cf4 b1bc
000001a0: 6472 703e 6316 4bbd 9b05 3e3b ed25 543d
000001b0: 9013 503d 24ec 823e ee4e 463c 4c54 9a3c
000001c0: f182 d13a f9ed 103d f9d4 4c3e caf4 b4bb
000001d0: fb3e b93d 465b a93b 2c9f bc3e c892 003e
000001e0: 2022 dc3d 895d 773e 3777 99bd f651 5bbe
000001f0: 7a48 963d aec2 5a3e 683e 893e 2cdb 6ebd
00000200: 2c65 e53d 2ac0 82be b482 bcbd 3e61 87be
00000210: 5ec7 413d 83ca fbbd bb74 d53d e9da 9cbd
00000220: 3673 623d c669 13bd cb3a 5dbd 17f3 b73d
00000230: d4f1 81be 3257 163e a574 ba3c b0df 093e
00000240: 30c3 e33c bb9a 68be aa0f ef3d fdd7 c3bd
00000250: 6e81 80be 10e4 bebe 45a2 f63d bd88 1dbe
00000260: 937a 81be 4698 a9bc b9d5 4b3c 585e 82bd
00000270: 9f71 a939 5246 68bd 6394 8e3d 082d 00bc
00000280: 185c fd3b 5e44 ecbd fa96 c1bd ae08 9fbd
00000290: 30d5 cdbe 21dd cdbe 0241 e43b eadd cf3d
000002a0: 3b05 67be 1d8d 133e 710f 883d 4727 143c
000002b0: eaa6 8ebe 1940 6fbe e37f 323e ba19 6e3d
000002c0: 29b4 833d f27d 313c d015 52be 8450 cebb
000002d0: ae36 0fbe 5976 11bd d499 c0be 9909 6ebe
000002e0: fb09 dabd 9cff 3ebe bcd0 043e de34 143e
000002f0: d080 68be cb38 1dbe 9bac d0be fba6 98bd
00000300: 43a9 b0bc a2c5 7abe 0e36 9fbe ba63 fdbe
00000310: 11ad 8e3d 6c12 9dbe 957f 363d c2be 05bd
00000320: 1463 acbd ae1e 7e3d 5ad6 94be ddc2 b5bc
00000330: 8d93 8fbd 145f f0bd 2a14 84bd abd6 403e
00000340: 13cf 543d de86 52be ab8f e33c 7695 d6be
00000350: cfa3 ebbe 13a5 b5be 1c77 ba3d 5a64 67be
00000360: 1bf8 b5be b701 a1be d9c9 00bd f5fe afbe
00000370: 4513 2ebe 8f36 87bc 873d 513d a56a 8dbe
00000380: a055 bb3d fbba d1be 7369 c03d 2b4d b3be
00000390: 4aeb f1be 1f61 b6be e6bc 4b3d f386 1b3c
000003a0: 7c57 d0be c594 17bd 060f e83d c47c bd3d
000003b0: 84e2 bebe 2571 9ebe 63af 963d 743f 253d
000003c0: 0b87 a33c aa07 113e 42a5 8dbe 8d5e 553d
000003d0: e5c0 90be 3d70 363c 506f afbe 515b 82be
000003e0: 1fde a8be 7049 a8be 6377 993d fc55 bbbc
000003f0: c64b 01be 2fbf 47be 5d9a 45be 144b 0b3e

net.3.bias f4 [32]
0.07413453 -0.08123393 0.36419767 0.27378657 0.32073295 0.32450056 0.39778996 0.2440476
-0.17594163 -0.19423111 0.41304353 0.2831318 0.040612184 -0.19208099 0.2188647 0.27504864
-0.2921311 -0.1662094 -0.0075540626 -0.26732072 0.15748046 0.34530756 0.18744156 -0.26473448
0.4051835 -0.12939999 0.3618783 -0.33140326 -0.17842169 -0.23500486 0.35240665 0.29011643
00000000: d8d3 973d fa5d a6bd 1e78 ba3e c12d 8c3e
00000010: 1c37 a43e f024 a63e 20ab cb3e 9de7 793e
00000020: 0b2a 34be 85e4 46be 717a d33e a7f6 903e
00000030: f658 263d e1b0 44be 111e 603e 2dd3 8c3e
00000040: 3592 95be cc32 2abe 1288 f7bb 43de 88be
00000050: 8f42 213e 27cc b03e aef0 3f3e 478b 87be
00000060: 3674 cf3e 6e81 04be 1d48 b93e b0ad a9be
00000070: 2db4 36be 1da5 70be a56e b43e 248a 943e

net.6.weight f4 [1, 32]
-0.3211423 -0.2077087 0.19981101 0.68235695 0.17629921 0.1370293 0.5806485 0.3572421
-0.21814226 -0.27815223 0.27674052 0.1908675 -0.50888586 -0.32755697 0.2209253 0.5308837
-0.49417448 -0.15470375 -0.23473811 -0.33353686 -0.39892766 0.46575877 0.46513557 -0.25811097
0.18236198 -0.32461464 0.79879105 -0.41396123 -0.26072177 -0.40591133 0.19388635 0.3229055
00000000: c36c a4be 97b1 54be 429b 4c3e f2ae 2e3f
00000010: c887 343e 6951 0c3e 61a5 143f 70e8 b63e
00000020: af60 5fbe f869 8ebe efb0 8d3e c572 433e
00000030: 5846 02bf 8cb5 a7be 3e3a 623e ffe7 073f
00000040: 7004 fdbe a96a 1ebe 305f 70be 58c5 aabe
00000050: 3f40 ccbe ef77 ee3e 4026 ee3e 1f27 84be
00000060: 19bd 3a3e e433 a6be 927d 4c3f baf2 d3be
00000070: 537d 85be 9cd3 cfbe 258a 463e df53 a53e
