src/fair_saved_model_nn.pth (torch, 18085 bytes, 5 tensors)

net.0.weight f4 [64, 24]
0	0x3e69a110	0.22815347
1	0x3e407f68	0.18798602
2	0x3dafe39d	0.08588336
3	0x3e9cbcee	0.30612892
4	0x3e4c68f6	0.19961914
5	0x3e5e384d	0.21701165
6	0xbe2c52ad	-0.16828413
7	0xbc100601	-0.008790494
8	0xbd903c8c	-0.070427984
9	0xbf091023	-0.5354025
10	0x3e5662c9	0.20936121
11	0xbe9fd553	-0.3121744
12	0xbe10f4cc	-0.14155883
13	0x3d7c0032	0.061523624
14	0x3e0793d8	0.13239992
15	0x3d32c26d	0.04364245
16	0xbd74fdf6	-0.05981251
17	0xbd666496	-0.05624827
18	0xbddac70c	-0.106824964
19	0x3e2cacaf	0.16862749
20	0xbd6bb707	-0.057547595
21	0xbc6ebff6	-0.014572134
22	0xbe19825e	-0.14991137
23	0x3e648f97	0.223204
24	0xbd293d9e	-0.04131853
25	0x3c29d575	0.0103658335
26	0xbd98069d	-0.074231364
27	0xbe86ac37	-0.26303264
28	0xbe8e3ad0	-0.27779245
29	0xbe7c0f31	-0.2461517
30	0x3e57d8d5	0.21078809
31	0x3f06d013	0.52661246
32	0x3eacfa07	0.33784506
33	0x3d1bec85	0.03806736
34	0xbdddf623	-0.108379625
35	0x3ebf8564	0.37406456
36	0xbcb3a925	-0.02193124
37	0x3e569099	0.20953597
38	0x3d8a4694	0.06751743
39	0xbc7f7630	-0.015592143
40	0x3d5238d8	0.05132374
41	0x3e9a578f	0.30144927
42	0x3eb9921a	0.3624428
43	0x3dfd0d89	0.12356097
44	0xbdd140a6	-0.10217409
45	0xbddf3dd6	-0.10900466
46	0xbd61487c	-0.055000767
47	0xbdaa82d3	-0.08325734
48	0xbda30333	-0.079595946
49	0xbece9719	-0.40349653
50	0xbe14b15c	-0.14520782
51	0xbe68490c	-0.22684115
52	0xbeac6a08	-0.33674645
53	0x3dd25f0e	0.102720365
54	0x3e7acacb	0.24491422
55	0x3ed7bfcb	0.42138514
56	0xbe96bb88	-0.2943995
57	0x3d62a87b	0.055336457
58	0x3e7ede82	0.24889567
59	0x3e5db07a	0.21649352
60	0xbe075523	-0.13216071
61	0xbd58c63e	-0.052923433
62	0x3e1927af	0.14956544
63	0xbda5e806	-0.081008956
64	0x3c93ad3d	0.018026942
65	0x3e8799d3	0.26484546
66	0x3e39d662	0.18148187
67	0xbd334af0	-0.043772638
68	0xbe180795	-0.14846642
69	0x3d3bd692	0.045858927
70	0x3c3f177d	0.011663315
71	0xbdc637f5	-0.09678642
72	0x3d8fdbce	0.07024346
73	0x3c4c924c	0.012486052
74	0xbeb576e5	-0.35442272
75	0xbdfd352e	-0.12363659
76	0xbd73ab61	-0.05948961
77	0x3cedd4bb	0.029032102
78	0x3e6ea657	0.23305641
79	0x3f9c1343	1.2193378
80	0x3c98bb48	0.01864399
81	0xbd037d4d	-0.032101918
82	0x3da8c11e	0.08239959
83	0x3d99cded	0.0750998
84	0x3f310ceb	0.69160336
85	0xbdb7ef05	-0.08981136
86	0x3d9b6685	0.075879134
87	0xbcdc34d5	-0.026880661
88	0xbc53206c	-0.012886148
89	0x3de12a71	0.10994423
90	0x3e0f616a	0.14002004
91	0x3e052144	0.13000971
92	0xbdabf7c3	-0.08396866
93	0x3cc8d554	0.024515785
94	0xbca51e1d	-0.02015596
95	0xbd9d4efd	-0.076810814
96	0x3e34c9b6	0.17655072
97	0xbe10bcde	-0.14134547
98	0xbdde803d	-0.10864303
99	0xbda96674	-0.082714945
100	0xbcbf16bf	-0.023326276
101	0xbb945ead	-0.004527888
102	0xbe4d2f53	-0.20037584
103	0xbe8cb7f4	-0.27484095
104	0xbe3be705	-0.18349846
105	0x3d81de20	0.06341195
106	0xbdf6d714	-0.12052742
107	0xbe64945e	-0.22322223
108	0xbe6a2d57	-0.22868858
109	0xbe294ba8	-0.16532767
110	0x3e2becb3	0.16789512
111	0xbdcbf2c8	-0.09958416
112	0x3e7d061c	0.24709362
113	0xbef58175	-0.4795033
114	0xbeb4e1ee	-0.3532862
115	0xbe310b4d	-0.17289467
116	0x3e1cce75	0.15313132
117	0xbe5d772f	-0.21627496
118	0x3daf7102	0.085664764
119	0x3c96190c	0.01832249
120	0x3d16415d	0.03668343
121	0x3dcc443c	0.09973952
122	0xbc52895d	-0.012850133
123	0xbe85aa60	-0.26106548
124	0xbed45e46	-0.41478175
125	0xbdcc195f	-0.09965777
126	0xbc18a3bc	-0.009316381
127	0x3efff260	0.49989605
128	0x3e951ad2	0.29122025
129	0x3da4abe0	0.08040595
130	0x3cb8f001	0.02257538
131	0x3e89e0de	0.26929373
132	0xbeab7a0f	-0.3349156
133	0x3e258b02	0.16166309
134	0xbd1202f0	-0.035647333
135	0x3d5b5cfe	0.05355548
136	0x3c73b89a	0.014875555
137	0x3e9db1e4	0.30799782
138	0x3e9731d8	0.29530215
139	0x3bbe0c0f	0.0057997773
140	0xbe7e1929	-0.24814285
141	0xbe25fed2	-0.16210487
142	0xbe047344	-0.12934595
143	0xbe1c14a7	-0.15242253
144	0x3d7e7667	0.062124636
145	0x3d75f301	0.0600462
146	0x3e4874c9	0.195758
147	0x3e820341	0.25393108
148	0x3e54ee5d	0.20794053
149	0xbb7196a4	-0.003686347
150	0xbe0a0b84	-0.13480955
151	0x3e673887	0.22580157
152	0x3ca86596	0.020556252
153	0xbe43f086	-0.19134721
154	0x3e5577d4	0.20846492
155	0xbe7e905d	-0.24859758
156	0xbe2cb6d7	-0.16866623
157	0x3ddc79fd	0.10765455
158	0x3dd17b1f	0.102285616
159	0xbe2c819c	-0.16846317
160	0xbd89c4c0	-0.0672698
161	0xbd195765	-0.03743686
162	0xbdf23719	-0.11826915
163	0xbe1aee32	-0.15129927
164	0x3bf94090	0.0076065734
165	0xbd5aae82	-0.05338908
166	0xbe0d252e	-0.13783714
167	0x3e318c4d	0.17338677
168	0x3dab6384	0.083685905
169	0x3da56ba3	0.08077171
170	0x3e6e6752	0.23281601
171	0x3e829d78	0.25510764
172	0x3e4bb765	0.19894178
173	0xbe40a826	-0.18814144
174	0xbe3ef29f	-0.1864724
175	0x3cf34b04	0.029698856
176	0xbd2cd8a9	-0.04219881
177	0x3ccfaed5	0.025351921
178	0x3e1ce329	0.1532103
179	0xbf0a24ec	-0.5396259
180	0xbe7b42de	-0.24537227
181	0x3d1a3c0c	0.03765492
182	0xbcfd2094	-0.030899324
183	0x3e02c615	0.12770875
184	0xbda571ef	-0.08078372
185	0xbd15dc8d	-0.036587287
186	0x3de138ce	0.10997163
187	0xbea868d2	-0.32892472
188	0x3e6411ae	0.2227237
189	0x3d7b9c8e	0.0614286
190	0x3cf0763b	0.029353252
191	0x3e2ae662	0.16689447
192	0x3e7f6571	0.2494104
193	0xbd9b3232	-0.07577933
194	0x3e3fec85	0.18742569
195	0xbda08ba6	-0.07839136
196	0x3da0cd99	0.07851715
197	0xbe05b874	-0.13058645
198	0x3d81d139	0.06338734
199	0x3caf0ef7	0.02136944
200	0xbee18c38	-0.4405229
201	0xbe48906b	-0.19586341
202	0x3d1a8e9e	0.037733667
203	0x3ce6b7a6	0.028163742
204	0xbe7d822a	-0.24756685
205	0xbed4aecf	-0.41539618
206	0xbed5b5ca	-0.41740257
207	0xbe3309d8	-0.17484224
208	0x3dca7d83	0.09887221
209	0xbe400f02	-0.18755725
210	0xbc63c049	-0.013900825
211	0x3e77f25b	0.24213545
212	0xbe9dcb65	-0.3081924
213	0xbde074af	-0.10959756
214	0x3c7a828c	0.015289914
215	0x3d6c0815	0.057624895
216	0x3e5be711	0.21474864
217	0xbdc6dfa6	-0.09710626
218	0x3e2dfa26	0.16989955
219	0xbdb96995	-0.09053341
220	0x3d5667df	0.052345153
221	0x3e57aa52	0.21061066
222	0xbbeef5cb	-0.0072924844
223	0xbd1300aa	-0.035889305
224	0xbec1b5c1	-0.3783398
225	0xbe18e4dc	-0.14931053
226	0x3cda97b0	0.026683658
227	0xbd0388fa	-0.032113053
228	0xbe4fb617	-0.20284306
229	0xbed1fd4c	-0.41013563
230	0xbebfff45	-0.37499443
231	0xbe21ff7a	-0.15820113
232	0x3e2547f8	0.16140735
233	0xbdeb329d	-0.11484263
234	0xbb1e4b58	-0.0024153795
235	0x3dfd5974	0.123705775
236	0xbe16c957	-0.14725243
237	0xbd6dca14	-0.058054045
238	0xbe1f15b4	-0.15535623
239	0x3c325480	0.010884404
240	0x3db58f56	0.0886523
241	0x3c8b9b7b	0.017041912
242	0x3d35e689	0.04440931
243	0xbe7f8fe8	-0.2495724
244	0xbe8eb055	-0.27868906
245	0xbe389115	-0.18024094
246	0xbd162d5f	-0.036664363
247	0x3f2483a6	0.6426338
248	0xbebbefc3	-0.3670636
249	0x3e3a7bb1	0.18211247
250	0x3dd0e778	0.10200399
251	0x3e0393d6	0.12849364
252	0xbe65bfdb	-0.22436468
253	0x3d2ce6bf	0.042212244
254	0x3da24f9c	0.079253405
255	0xbdcb8a04	-0.09938434

net.0.bias f4 [64]
0	0x3cbd8f6a	0.023139674
1	0xbf05f473	-0.52326125
2	0xbebb28b6	-0.36554497
3	0xbf299df4	-0.6625664
4	0x3cbaa268	0.02278252
5	0xbebcaac4	-0.36849034
6	0xbe47ea2c	-0.19522923
7	0x3d2479d9	0.040155265
8	0x3b81e45c	0.00396399
9	0xbd35a082	-0.044342525
10	0xbeb3b465	-0.35098568
11	0xbd328212	-0.043581076
12	0xbdc6df51	-0.09710563
13	0xbd980e40	-0.07424593
14	0xbd1a4020	-0.03765881
15	0xbad71bec	-0.001641152
16	0x3d1a3773	0.037650537
17	0x3d08e43a	0.03342078
18	0x3d4db989	0.05022577
19	0xbef47a17	-0.47749397
20	0xbec2864c	-0.37993085
21	0xbf1d5f6a	-0.61473715
22	0xbe9d31f9	-0.3070219
23	0xbf087d1f	-0.5331592
24	0xbea67183	-0.32508478
25	0xbe5d270b	-0.21596925
26	0x3e58efca	0.21185222
27	0x3d8c648d	0.06855116
28	0xbf190f15	-0.5978864
29	0xbec72d29	-0.38901642
30	0x3e4dd43c	0.20100492
31	0xbed8ff8b	-0.42382464
32	0x3d7bc8df	0.061470862
33	0xbee40c8b	-0.4454082
34	0x3e1e3ace	0.1545212
35	0xbef438f1	-0.47699693
36	0xbf228cd0	-0.6349611
37	0xbf4735af	-0.7781629
38	0xbeff2f9f	-0.4984102
39	0x3d82f50e	0.06394397
40	0xbf155f22	-0.58348286
41	0x3d9eece9	0.07760031
42	0xbe389f6b	-0.18029563
43	0xbde3df3d	-0.11126564
44	0xbf1972e8	-0.5994096
45	0xbf02a483	-0.51032275
46	0xbe2bf3fe	-0.16792294
47	0x3c78aaa7	0.015177405
48	0x3e1f178a	0.15536323
49	0x3dcc4d54	0.09975687
50	0xbeb8b0ed	-0.36072484
51	0x3e4e3250	0.2013638
52	0xbeba84f3	-0.36429557
53	0x3e957596	0.29191273
54	0xbdc06c67	-0.09395676
55	0xbf041356	-0.51592004
56	0xbf081070	-0.5315008
57	0xbf13f097	-0.57788986
58	0x3ed85afa	0.4225691
59	0x3da07e26	0.07836561
60	0xbefc159b	-0.49235234
61	0xbecdeee7	-0.4022133
62	0xbeeb5744	-0.45965016
63	0x3e171077	0.14752375

net.3.weight f4 [32, 64]
0	0xbdce99aa	-0.10087903
1	0x3ce1253b	0.027483573
2	0xbe2beedb	-0.16790335
3	0xbcdc8f32	-0.02692375
4	0xbda1994d	-0.07890568
5	0x3d2f46a2	0.04279197
6	0xbd7e5279	-0.06209037
7	0xbc8920fc	-0.016739361
8	0xbd8a5245	-0.06753973
9	0x3c8012ee	0.015634026
10	0xbd81f035	-0.06344644
11	0xbc0975ae	-0.008389873
12	0xbe0a7e17	-0.13524662
13	0xbddb3f95	-0.10705487
14	0x3d1eda33	0.03878231
15	0xbdf58a62	-0.11989285
16	0xbd04e8a4	-0.032448426
17	0xbd77a287	-0.060457733
18	0x3d88fc97	0.06688803
19	0xbd8123c8	-0.06305653
20	0xbddbadd2	-0.10726513
21	0xbd19c90c	-0.03754525
22	0x3c18c0aa	0.009323278
23	0x3c08a813	0.008340853
24	0xba7b03af	-0.0009575439
25	0xbd8ce7d4	-0.06880155
26	0x3c772e3d	0.015086708
27	0xbe18d0b7	-0.14923368
28	0xbd125587	-0.035726096
29	0xbcc5e0c3	-0.024155026
30	0x3a6ee20e	0.0009112664
31	0xbda9592f	-0.082689635
32	0xbdc44432	-0.0958332
33	0xbc5a6505	-0.013329749
34	0xbe07b484	-0.13252455
35	0xbdef3b46	-0.116812274
36	0xbde7a17e	-0.11310099
37	0x3d111be9	0.035427008
38	0x3d9251aa	0.071444824
39	0xbd2b0919	-0.041756723
40	0xbd2bd0e1	-0.04194725
41	0xbbedd0ec	-0.0072575714
42	0xbdeffd62	-0.11718251
43	0xbd1e12e6	-0.03859224
44	0x3c1b8167	0.009491301
45	0xbda5b7e6	-0.080917165
46	0xbbf79623	-0.0075557395
47	0xbdb1e8f7	-0.08687013
48	0xbd99eab0	-0.07515466
49	0xbe33a8d2	-0.17544869
50	0xbd51127f	-0.05104303
51	0xbdfc6635	-0.12324182
52	0x3ae56637	0.0017501776
53	0xbde2622f	-0.11053883
54	0xbbf0c66c	-0.0073478725
55	0xbe09e629	-0.13466705
56	0x3d28ec22	0.04124082
57	0xbdd4d6d5	-0.103925385
58	0xbd8fa1de	-0.070132956
59	0xbdf4c8cf	-0.11952364
60	0xbd6abcd7	-0.057308998
61	0xbd3335b0	-0.043752372
62	0xbc3f3652	-0.011670666
63	0xbaf1f230	-0.0018459018
64	0xbe343590	-0.17598557
65	0x3ebd5690	0.36980104
66	0x3e524a8a	0.20536247
67	0x3f2f3ed3	0.6845524
68	0x3d37f402	0.04491044
69	0x3e81514b	0.25257334
70	0xbe210f53	-0.15728502
71	0xbd7255c5	-0.059163827
72	0xbd9b94c3	-0.075967334
73	0x3d52477d	0.051337708
74	0x3ddb0661	0.10694576
75	0xbd5e8b50	-0.054332078
76	0xbe134d35	-0.14384921
77	0xbd609e1d	-0.05483829
78	0xbe41c786	-0.18923768
79	0xbbe9cad6	-0.0071347756
80	0xb9a9e91a	-0.00032407866
81	0xbe739d06	-0.23790368
82	0xbe507ff6	-0.20361313
83	0x3e09ee68	0.13469851
84	0x3e9ccce1	0.3062506
85	0x3e320ccc	0.17387694
86	0xbe831638	-0.2560289
87	0x3eeadf33	0.45873412
88	0x3e47dc5f	0.19517659
89	0xbd30fbe0	-0.043208957
90	0xbe1fa650	-0.15590787
91	0xbd4b90c7	-0.049698617
92	0x3e317d7f	0.17333029
93	0x3e166ca1	0.14689876
94	0xbe71cf77	-0.23614298
95	0x3e2cb806	0.16867074
96	0xbe808b8a	-0.2510646
97	0x3e783ddc	0.24242347
98	0xbe835421	-0.25650123
99	0x3ea8b606	0.32951373
100	0x3ebdd5cf	0.37077186
101	0x3f0db01f	0.55346864
102	0x3ebabbac	0.36471307
103	0xbe1bd0ce	-0.15216371
104	0x3e7498ce	0.23886415
105	0xbc8638c3	-0.016384488
106	0xbdcfa300	-0.10138512
107	0xbdf6a43e	-0.120430455
108	0x3f1fc3d7	0.624082
109	0x3f073875	0.5282052
110	0xbe29ff55	-0.16601308
111	0xbb010cac	-0.001969139
112	0xbdfcf9b7	-0.12352317
113	0xbe60389b	-0.21896593
114	0x3e13fa4c	0.1445095
115	0xbe6a4665	-0.22878416
116	0x3de63951	0.11241401
117	0xbde5b0fa	-0.11215396
118	0x3d252597	0.04031905
119	0x3eaefc03	0.34176645
120	0x3e855259	0.2603939
121	0x3e49ee27	0.19719754
122	0xbe74b19e	-0.2389588
123	0xbe3a1bf9	-0.18174733
124	0x3e79c48e	0.24391386
125	0x3df3d3b0	0.119056106
126	0x3ea32dfb	0.31871018
127	0x3cb937ed	0.022609675
128	0xbd324001	-0.04351807
129	0xbddbc5ba	-0.10731073
130	0xbde25db8	-0.11053032
131	0x3d79af3f	0.060958143
132	0xbd04b830	-0.032402217
133	0xbd149d9a	-0.036283113
134	0xbc672e3a	-0.014110142
135	0xbd76a9ca	-0.060220517
136	0xbd175d26	-0.036954068
137	0xbdd67ab3	-0.10472622
138	0xbd4c6b59	-0.049907062
139	0x3d0d4336	0.034487925
140	0xbdd8f2c4	-0.10593179
141	0xbbbe6b00	-0.0058110952
142	0xbd8efb29	-0.06981499
143	0xbcd240d2	-0.025665674
144	0xbc9ade26	-0.018904757
145	0x3ca558df	0.020183979
146	0xbce933b6	-0.02846704
147	0x3d978308	0.07398039
148	0x3b4bfba7	0.0031125338
149	0xbc0d9e56	-0.008643707
150	0xbceb1a21	-0.028698983
151	0x3d26a8a2	0.040688165
152	0xbd42ec5b	-0.047588687
153	0x3d7d19c2	0.061792143
154	0xbd4f366f	-0.05058902
155	0xbdb6a152	-0.08917488
156	0x3d3930a7	0.045212414
157	0xbdb09dce	-0.08623849
158	0x3ce26c73	0.027639603
159	0x3b01cb95	0.0019805182
160	0xbe0fd7d0	-0.1404717
161	0xbd769e9d	-0.06020986
162	0xbe2090c8	-0.1568023
163	0xbd8a9788	-0.067671835
164	0xbe3c2e7f	-0.18377112
165	0xbd8f4bac	-0.06996855
166	0xbcc5ba14	-0.02413658
167	0xbd1f2c51	-0.038860623
168	0x3d7f4ca1	0.06232894
169	0xbd335f48	-0.04379204
170	0xbc6042d1	-0.013687805
171	0xbde02e90	-0.10946381
172	0xbe34a6aa	-0.17641702
173	0xbd35651a	-0.04428587
174	0xbc420a60	-0.011843294
175	0xbcd5fa9e	-0.02612048
176	0xbca6df47	-0.020370139
177	0xbdfa2bb0	-0.12215364
178	0xbdae27c1	-0.08503676
179	0xbde5da4a	-0.11223276
180	0x3d195a54	0.03743966
181	0xbdad0a9b	-0.084492885
182	0xbe103d11	-0.14085795
183	0xbd1d07de	-0.03833758
184	0xbcfdcb33	-0.030980682
185	0xbd85c23d	-0.06531189
186	0xbda1713f	-0.07882928
187	0xbd38ae9e	-0.045088403
188	0xbe008dbc	-0.12554067
189	0xbde397cb	-0.111129366
190	0xbd5c93e7	-0.05385199
191	0xbe0540c9	-0.13012995
192	0xbe090a4d	-0.13382836
193	0x3d28f355	0.041247685
194	0xbd9374ba	-0.07199998
195	0xbd900a71	-0.070332415
196	0xbd506e7d	-0.05088662
197	0xbdb9f104	-0.09079173
198	0x3c847c21	0.01617247
199	0xbd5d6362	-0.054049857
200	0xbe099346	-0.13435087
201	0xbdf625c5	-0.12018923
202	0x3d46d24b	0.048540395
203	0xbdb1ef98	-0.08688277
204	0xbd929198	-0.07156676
205	0xbdaa8dcf	-0.08327829
206	0xbdb8683b	-0.090042554
207	0xbd981a1e	-0.074268565
208	0xbcbb6eb8	-0.022879943
209	0xbdac83c0	-0.08423567
210	0xbcc318f8	-0.023815617
211	0xbdf45480	-0.119301796
212	0xbddc7017	-0.10763567
213	0x3c016948	0.007898636
214	0xbd9e4de7	-0.077297024
215	0x3cff1542	0.031138066
216	0xbcdb900e	-0.026802089
217	0xbe043d90	-0.12914109
218	0xbdb3db20	-0.08782029
219	0xbbb6b4a7	-0.0055757347
220	0xbdbaeb52	-0.09126915
221	0x39c3ac82	0.00037321827
222	0xbcd9381e	-0.026516017
223	0xbc3cff23	-0.011535439
224	0x3bc78d51	0.0060898443
225	0xbce7d653	-0.02830044
226	0xbc1b7692	-0.009488719
227	0xbdfd66eb	-0.12373146
228	0xbdbf14d6	-0.09330146
229	0x3d57e80f	0.052711543
230	0xbc5d546e	-0.013508899
231	0xbd7f62dc	-0.06235014
232	0xbcf12083	-0.029434448
233	0xbdadbdb5	-0.08483449
234	0x3d0a4784	0.03375961
235	0xbd971dd7	-0.073787384
236	0xbd29bbc8	-0.041438848
237	0xbb455581	-0.0030110779
238	0xbd07588a	-0.03304342
239	0xbdaf36db	-0.08555385
240	0xbd9986cd	-0.07496414
241	0x3d4a7133	0.04942436
242	0x3c951313	0.018197572
243	0xbdbb6f9e	-0.09152149
244	0xbe23a6ab	-0.15981548
245	0xbc0d39e4	-0.008619759
246	0xbc97a89e	-0.01851302
247	0x3c20492e	0.009783072
248	0x3d19ed62	0.0375799
249	0xbdfe3cd8	-0.12413949
250	0xbd1048c0	-0.03522563
251	0xbdd8d856	-0.10588138
252	0x3d4dea5a	0.050272323
253	0x3d823687	0.063580565
254	0xbd274bf2	-0.04084391
255	0x3c4a6df3	0.0123553155

net.3.bias f4 [32]
0	0xbd991985	-0.074755706
1	0xbe7d6b08	-0.2474786
2	0xbdfa0c35	-0.122093596
3	0xbdd248e6	-0.102678105
4	0xbd9632ba	-0.07333894
5	0xbe4eace7	-0.20183145
6	0xbd68e5b2	-0.05685968
7	0xbe09afd1	-0.13445975
8	0xbed68391	-0.41897252
9	0xbefac79b	-0.48980412
10	0xbd46e765	-0.04856052
11	0xbde7fa86	-0.113270804
12	0xbe9b3eef	-0.30321452
13	0xbedfc149	-0.43702152
14	0xbe62866c	-0.2212159
15	0xbe319f4f	-0.17345928
16	0xbe9624d5	-0.29324976
17	0xbeb0bbaa	-0.34518176
18	0xbebce191	-0.36890844
19	0xbec3b65b	-0.38225064
20	0xbddb0b39	-0.106955
21	0xbdbc90d4	-0.09207311
22	0xbe83ad40	-0.25718117
23	0xbebde223	-0.3708659
24	0xbd9b11dc	-0.07571766
25	0xbeea121e	-0.45716947
26	0xbd5938fe	-0.053032868
27	0xbe137564	-0.1440025
28	0xbe7f645d	-0.2494063
29	0xbed48a94	-0.41511977
30	0xbe29de58	-0.16588724
31	0xbe398dc5	-0.18120487

net.6.weight f4 [1, 32]
0	0x3d0f5139	0.03498957
1	0xbf6ed8dd	-0.9329966
2	0x3ad47823	0.001621012
3	0xbc8878bf	-0.016659139
4	0x3c327195	0.010891338
5	0xbab54a3a	-0.0013831325
6	0x3a91461f	0.001108352
7	0x3d13f7e9	0.036125097
8	0xbf1d29f4	-0.6139214
9	0xbf7e6c2c	-0.9938381
10	0x3ce161a3	0.027512377
11	0x3ccccebb	0.02500092
12	0xbf592c92	-0.84833634
13	0xbf6d5789	-0.92711693
14	0xbaa04da7	-0.0012230173
15	0x3cd1f0a4	0.025627442
16	0xbf21db19	-0.6322494
17	0xbe25abff	-0.16178893
18	0xbf3d32a5	-0.739054
19	0xbf43dc20	-0.7650776
20	0x3ce4d561	0.027933778
21	0x3a3a9343	0.00071172806
22	0x3cbe4197	0.023224635
23	0xbf4272b2	-0.7595626
24	0x3d20dff9	0.039276097
25	0xbf54a94c	-0.83070827
26	0x3c728167	0.01480136
27	0x3ba1d89f	0.0049391533
28	0xbf0f95dc	-0.5608804
29	0xbf1a3846	-0.60242116
30	0x3c301374	0.0107468255
31	0xbd269b3f	-0.040675398
