src/fair_saved_model_nn.pth (torch, 18085 bytes, 5 tensors)

net.0.weight f4 [64, 24]
00000000: daa2 753d c0a0 c03d 491f f83c d538 d53e
00000010: 92ab d13c 5399 7b3d fb75 e6bd abc8 283f
00000020: bfe1 ca3e 264e 95bd 81d8 f13d 64ef 77bc
00000030: b167 bc3d f8a5 e7bd 205e 2cbd f88f a83b
00000040: 51fa 843d 6a1b 35bd a3c2 e4bc eb17 adbd
00000050: 507c 213e 43c9 103d 1e67 19bd d71f 5a3d
00000060: 53e6 b0bd 4812 2dbf cdf3 a73c 2a2c c7bd
00000070: bd90 d43c b1be 83bd bd1c 0b3e 34bc 3b3e
00000080: bed4 e03d 0c2b db3d d224 4fbc 4a33 8e3e
00000090: 095e babd 2da9 4e3e 7d9c 743d 7877 d5bb
000000a0: da45 f03b 7ce4 893e 7862 8a3e cf33 ab3d
000000b0: add0 16be ee10 fb3b fa14 2f3d ae40 99bd
000000c0: 22a3 c13d 1a78 83be 7d87 83bd 4d2e bdbd
000000d0: 4489 14bf 45de 7f3c 560a 0a3e 5990 ed3e
000000e0: fa29 183e ddea 583d aa3a ba3d 8884 783e
000000f0: 7187 60bd 883f 19bd 3431 293e 3cce bbbc
00000100: f62e 95bc dd8f 463e c04d 233e cb46 d53b
00000110: 0128 20be 83f0 fabc 990e 06bd bc26 cabd
00000120: d5b0 d53d 0ae9 7dbd 62c0 a9be 8322 4dbd
00000130: 1e39 87bd eb38 4abb a176 5d3e 970a 4e3f
00000140: ef35 78bd cba1 57bd a32f fd3c c36c c93c
00000150: 9fb2 0e3f 6d07 a4bd 1b5c ae3d c607 be3c
00000160: c94b d0bc 6a90 a83d d125 843d ad29 cf3d
00000170: 9085 10bd c8f7 04bd 6613 4dbd 1f85 bfbd
00000180: e5d9 f23d df34 013c 2e1a 783d ca2e 0ebe
00000190: 0dea 2e3d d048 33bd b0bf a93d 4177 95be
000001a0: 2cd1 11be c84d cebd 8051 94bd a116 b0be
000001b0: a9af 4ebe eeda 92be 9058 403d afa2 d7bb
000001c0: 2d99 c73b 7ed0 c4be 7312 cebe f600 c9bc
000001d0: 7de2 2b3e cb1d 963d ee1c 4dbd 4a68 203d
000001e0: 50d9 e53d eedb 1abe 0c57 323b 74d5 12be
000001f0: 0955 fdbe 7199 b8bd 215a b63c cf20 df3e
00000200: bbf3 473e 2eae e13c 4f75 eb3d 9c49 723e
00000210: 7c77 66be 5c14 253e 21a5 14bd 0cd8 5c3c
00000220: 920f 5ebd 9ec1 9b3e 239f 5d3e 60bc ab3d
00000230: 6162 4fbe 190e b7bd d612 2fbd 106e 25be
00000240: 7c51 08be 886e 1e3d a02c eb3d 7279 a03e
00000250: 0181 643e 9f5f 71bc 2027 febd 5e15 22be
00000260: 55e7 f2bd 34ad 2dbd c517 3a3d dd5a 53be
00000270: 6c93 d3bd 0793 cabd e7a7 d5bd 7298 5b3d
00000280: 19c6 c33c f78e 7abe 8f12 31be a3e3 99be
00000290: cd1c 713e b401 3b3d a862 933d 7028 503e
000002a0: fa25 833d 476e c8bd de6b aebd b3f0 3ebe
000002b0: d9fd 863e 9bef b9bd 612a 443c 8c8d df3e
000002c0: 097b 60be 638b ab3d 647f 423e 0115 a43d
000002d0: b250 963e 4e37 ba3d 154d ba3c c31b d3bc
000002e0: 0bd7 e23d e790 a13e aa23 803c 780b 2c3c
000002f0: bc47 08be 3384 cc3c 04d1 83bd 5540 c5bd
00000300: a13d f5bb 18f2 153e 7691 473d 5237 5f3e
00000310: f450 ed3a b66c 8abd 16cb d33c 032d 393d
00000320: 6443 c0bd 3998 64be 367b 133e b33c 5fbd
00000330: 0172 89be 0013 43be 1408 45be 1c7e 4abe
00000340: b5b7 4a3d fe2e 2abe d488 ffbd dd93 0ebc
00000350: 7a41 54be 5fe1 303c 6b9e b73d 3210 733e
00000360: 9b15 1b3d 3321 8e3c 592d b33d 6640 fb3d
00000370: a585 f23c a387 5e3c 1142 92bd 1c35 ae3d
00000380: 1205 7fbe 0329 68bd 66f2 513d 2219 09be
00000390: c958 51be 70b4 c7be 8d96 b5be 56ad 023e
000003a0: d8c8 053e dea2 17be db52 73bd f2a8 d5bd
000003b0: d8fd acbb cbc8 fb3b 287e 75bd 6d56 c43d
000003c0: cd6a 143e 632c 453c 7888 ff3d a9e7 acbe
000003d0: 1d94 5bbe 935e 87be 3342 1bbe 0d27 bd3e
000003e0: ca72 233d 8f64 663e fb9e a93d 76b6 1e3e
000003f0: e751 9ebe 5331 9e3a 6ffe 1b3d 436c bcbc
0.05996976 0.09405661 0.030288355 0.41644922 0.025594506 0.06142552 -0.11252972 0.65931195
0.39625356 -0.07290296 0.11808873 -0.015132759 0.09199465 -0.11310953 -0.042081952 0.0051441155
0.064930566 -0.044215597 -0.027924841 -0.084518276 0.15770078 0.035348188 -0.037451856 0.05325302
-0.08637681 -0.6760602 0.020501995 -0.097252205 0.025947923 -0.06432856 0.13585182 0.18333513
0.10978077 0.1070157 -0.012643056 0.27773505 -0.09099967 0.20181723 0.05971955 -0.006514486
0.0073325457 0.26932132 0.2702825 0.08359491 -0.14728041 0.0076619303 0.042744614 -0.0748304
0.09454943 -0.25677568 -0.06422327 -0.09237347 -0.5802195 0.015616958 0.13480505 0.4639919
0.14859763 0.052958358 0.090932205 0.24269307 -0.054816667 -0.037414104 0.16522676 -0.022925489
-0.01821087 0.19390817 0.15947628 0.0065086833 -0.1564026 -0.030632263 -0.032728765 -0.09870669
0.10434119 -0.06198982 -0.3315459 -0.05008174 -0.06602691 -0.003085668 0.21627285 0.8048491
-0.06059831 -0.052644532 0.030906504 0.024587994 0.55741304 -0.08009229 0.085136615 0.023197066
-0.025426762 0.0823067 0.064525254 0.10115371 -0.035283625 -0.032462865 -0.050067328 -0.09351563
0.11857966 0.007886141 0.060571842 -0.13885036 0.042703677 -0.04377061 0.082885146 -0.29192546
-0.14239949 -0.10073429 -0.072421074 -0.34392264 -0.20184197 -0.28682655 0.04695946 -0.0065806727
0.006091258 -0.38440317 -0.4024845 -0.024536591 0.16785617 0.07329901 -0.050076418 0.039161958
0.1122309 -0.15122959 0.0027212529 -0.14339238 -0.4947894 -0.090136416 0.022259774 0.43579718
0.1952657 0.027548876 0.11496984 0.23660892 -0.22506517 0.16121048 -0.03629029 0.013479244
-0.054214068 0.30421156 0.21642737 0.08385539 -0.20252372 -0.08938236 -0.042742573 -0.16155267
-0.13312334 0.03867963 0.11483121 0.31342655 0.22314836 -0.0147322705 -0.12409806 -0.15828463
-0.11860529 -0.042401507 0.045432825 -0.2064013 -0.10330853 -0.098913245 -0.104324155 0.05361218
0.023898171 -0.244686 -0.17292236 -0.30056486 0.23546143 0.04565592 0.071965516 0.20327926
0.06403728 -0.09786659 -0.08516668 -0.18646507 0.26365545 -0.09078904 0.011972995 0.4366268
-0.21921934 0.08376195 0.18993908 0.08011819 0.2935844 0.0909258 0.022741834 -0.025770074
0.110761724 0.31555864 0.015642006 0.010500781 -0.13308614 0.024965381 -0.06436351 -0.09631411
-0.0074841534 0.14643133 0.048722707 0.21798447 0.0018105791 -0.06759016 0.025853675 0.045208942
-0.09387854 -0.22323693 0.1440247 -0.054501247 -0.2684479 -0.19050217 -0.19241363 -0.1977467
0.049491603 -0.16619489 -0.1247727 -0.008702246 -0.20728102 0.01079592 0.08965763 0.23736647
0.0378624 0.017349815 0.08748884 0.122681424 0.029604742 0.013582143 -0.071415074 0.085062236
-0.24904278 -0.056679737 0.05125656 -0.13388494 -0.20444025 -0.3900485 -0.35466424 0.12761435
0.13064897 -0.14808223 -0.05940519 -0.104326144 -0.005279284 0.0076838485 -0.059934765 0.09586797
0.14493866 0.012034508 0.12477201 -0.33770493 -0.2144322 -0.26439342 -0.15161972 0.36943856
0.039904393 0.22499298 0.08282276 0.15499291 -0.30921862 0.0012069143 0.038084444 -0.023000842

net.0.bias f4 [64]
00000000: 466c 04bf d232 95be d5ed 91be d28b e8be
00000010: e94d 263d 24c7 93be 1310 f63d 8332 77be
00000020: 4bdc 46bd 95ad 43be 975b 77bd e83e 913d
00000030: a25e 9ebe ebed cbbd d009 fa3c da94 3abe
00000040: 5792 fb3d 8a2d efbe 41ea 203e dce7 b7be
00000050: e176 77be 64a4 34bf 3407 bebe e190 27bf
00000060: 5585 27be 77a2 6bbe 3354 a43d a9e5 12be
00000070: a247 a1be 80bb 0cbe 71ba 123e ba2b 59be
00000080: acec 453d e9e8 8dbd 0796 183e 610f dabd
00000090: bf2b 01bf 2b46 1ebf 2325 babe eb80 c9bd
000000a0: 0894 96be 03b4 29bd 0cbd a63c e4d0 e1bd
000000b0: 5275 66be d828 15be cbe9 34be 2c8b 693d
000000c0: 2af7 a8bb 925d f03d 15a6 84be 404f b13d
000000d0: 10e9 d1bd 1b6a 473e e02d e3be 102b 90be
000000e0: 429e b1be 6383 f0be 9a5f 1f3e 2608 9ebe
000000f0: adab 1ebe e688 8cbe 5856 bebe 2d97 513d
-0.5172771 -0.29140335 -0.28501764 -0.45419174 0.040601645 -0.2886287 0.12014785 -0.24140362
-0.04854993 -0.19109185 -0.06039008 0.070920765 -0.30931574 -0.099574886 0.030522257 -0.18220845
0.122837715 -0.4671443 0.15714361 -0.35919082 -0.24166442 -0.7056334 -0.3711487 -0.6545544
-0.16359456 -0.23011194 0.08023872 -0.14345421 -0.31499964 -0.137434 0.14328934 -0.21208087
0.04832141 -0.0692919 0.14900981 -0.106474645 -0.50457376 -0.6182582 -0.36356458 -0.09839042
-0.29409814 -0.04143144 0.020353816 -0.11026171 -0.22505692 -0.14566362 -0.1766731 0.05701749
-0.0051564174 0.11736597 -0.2590796 0.08657694 -0.10249531 0.1947407 -0.44370937 -0.28157854
-0.34691054 -0.4697524 0.15563813 -0.30865592 -0.15495177 -0.27448195 -0.3717525 0.051169563

net.3.weight f4 [32, 64]
00000000: 211f ccbd 13cf ff3d 30f2 2abc f354 423e
00000010: 6c23 35be 5c52 813e d9c8 cfbe b11f 2e3e
00000020: 54b2 8439 a80f e0bb 7548 2b3e 52dd 0abd
00000030: b7b9 263e 10f2 c2bd 938e e5bd 03c4 81be
00000040: 3f55 74bd 2067 103e f8fb 0ebe f128 363e
00000050: 808b 4c3e 713a 743e 7eaf 21be c32c 923e
00000060: c785 7f3e bd82 833d 72e3 16bc be04 0a3d
00000070: fda5 413e 38fd 2abd 1a8e 09be 1ba2 7d3d
00000080: 2f5a 8dbe 5e64 f73d 9f86 fabe 3a8b a6bc
00000090: 057e 143e 4620 823e a35a 823e 7613 ca3d
000000a0: 7f92 2e3e 7433 37be 80bb adbd 0447 2ebe
000000b0: 5cff 143d 22e5 b03d 3fe8 f13d 7d5c 86be
000000c0: 837c 56be dff2 64be 97ce 003e 121f 65be
000000d0: 918d bf3d 9028 5abe 9ce1 933e 848c 633d
000000e0: 4e16 023e a2c7 813d e518 2fbe a411 24be
000000f0: 6d2b 383e f95e 7d3e f558 9b3e 2dbb 3fbe
00000100: d54d 243e 0ff9 fd3d 8c91 3f3d a925 cc3e
00000110: c459 bdbd 8d2a 9c3d 420a 83bd c603 fd3d
00000120: 8686 81bd 1381 67bc fd6f d03d 9a40 6b3a
00000130: 1677 403e 715e d8bc 48bf 81bd b151 9cbd
00000140: 1d83 19bd 4287 2b3e 4dae 7c3c 9312 a13e
00000150: ea2f 863e a482 e13e bcea 1dbe 95c3 cb3e
00000160: b750 0b3d 37b9 713d 33d8 58bd 53f3 4b3d
00000170: e0b4 4b3e 8daf 9a3d 8407 a0bd 9d93 a63c
00000180: 31a0 26bd c73a d13c aef6 05bd 9c94 c83c
00000190: 2dc1 a43e 0f09 903e 701e 9e3e 11da 2c3b
000001a0: faea 583e e90b 50bd d34f c0bb f46a 63bc
000001b0: d2ee 823d 518a 8a3e e23d 023d 010a 993c
000001c0: 65a8 d4bc b6ae 4d3c 85f0 303e 33d9 09bd
000001d0: 45e1 0f3e 3a3d 8abb 91a0 a13e 4d4b dd3d
000001e0: 0ad4 b53d 552b 503e dadb b6bd 328b 46be
000001f0: 8758 f03d 51b7 823e 7765 7d3e b152 4cbd
00000200: a671 10be 6e60 6dbe 6d1e 32be 9d17 69be
00000210: 56f3 333d bd74 16be 1abd cf3d 0d62 b0bd
00000220: b5ee 173d e9da 24bd 0535 8dbd d1da e73d
00000230: 5da8 88be e30d 093e e53e 763c 6bf2 e83d
00000240: 35fd 313d f43d 2ebe 6673 af3d f87e 15be
00000250: 632a 87be fe39 c5be 9b2d e13d d479 2ebe
00000260: b3b3 6ebe a3d8 67bc 9f0a ac3c 05b9 c1bd
00000270: 7a04 e33c 2146 c6bc 3768 cb3d c5cb 39bd
00000280: 6dbf 353c 0e5d 0ebe 07d9 a7bd 114e c0bd
00000290: f919 c5be bbd1 84be 368c 11be 92b0 d03d
000002a0: baa9 4fbe d2ed d73d cb9d 653d 3120 ac3c
000002b0: 14f5 64be 8d62 82be 69db 323e db04 883d
000002c0: 21f2 993d 53e8 333d 5ce6 5cbe 5345 e43b
000002d0: 15af d0bd 763a 7fbc f363 bbbe 3d2f 2fbe
000002e0: 0a30 09be 938a 19be 433e 2f3e b20a 0b3e
000002f0: 4f6d 74be 41e6 26be dc76 b1be 69a8 12bd
00000300: c4bc 6abe a113 98be cb82 99be e158 dabe
00000310: c1f0 243d 928c 79be 1dbe 313d ef10 5abd
00000320: 7f6e 2bbc f76f f53a 4edd 8cbd 3692 883b
00000330: a2dd 02bd 68c8 2dbc 8510 01bd 543a c53d
00000340: 0237 6a3d 3ccf 83be a251 283d e471 c8be
00000350: 2374 afbe 2ab5 a2be 5f85 8e3d 3f1d 9cbd
00000360: ae5d 8ebe e816 8abe 14e7 25bd 6e71 7dbe
00000370: 48f3 5bbe 025f 303d 318e 313d 5a88 7abe
00000380: 08e9 e43d bf12 c4be 1f87 f33d 21c5 17be
00000390: 3017 dfbe 03ff 05be 670b 82bd ee9d 0f3d
000003a0: 6028 86be e48b 1e3c 2855 323d 840d a03c
000003b0: 22bc 3abe c62f aabe 0261 1bbc 0d9c c23c
000003c0: a9d9 eabc 1c60 043e 9d2b 72be fb23 863d
000003d0: 9c4d 86be 6664 3abc 6a7c 9ebe 0783 16be
000003e0: c62b 69be 8069 adbe 1681 cb3d 0ad5 febb
000003f0: 4b33 bbbd 3eed fbbd 1500 babd 1926 4f3e
-0.09966875 0.12490668 -0.010433719 0.18977718 -0.17689294 0.25258148 -0.40582922 0.17004277
0.00025309867 -0.006837804 0.16726859 -0.033902474 0.16281782 -0.09518826 -0.112088345 -0.25344858
-0.05965161 0.14101839 -0.13963306 0.17789055 0.1997509 0.23850419 -0.15789601 0.28549775
0.24953376 0.06421421 -0.009209501 0.03369593 0.18910976 -0.041745394 -0.13433114 0.061922174
-0.27607867 0.120796904 -0.48930833 -0.02033006 0.14501198 0.25415248 0.25459775 0.09866993
0.17048071 -0.17890722 -0.084830284 -0.17019278 0.036376342 0.086374536 0.118118756 -0.26242438
-0.20945935 -0.22358273 0.12578808 -0.22375134 0.093531735 -0.21304536 0.28883064 0.055553928
0.12703821 0.06336905 -0.1709934 -0.16022354 0.17985316 0.2474326 0.30341306 -0.18723746
0.16045316 0.1240102 0.046769664 0.39872482 -0.09245637 0.076253034 -0.06398441 0.12354235
-0.063244864 -0.014129895 0.1017761 0.0008974165 0.18795428 -0.02641222 -0.06335312 -0.07632769
-0.037478555 0.16750816 0.015422416 0.31459484 0.2620843 0.44044983 -0.15421575 0.39797655
0.034012523 0.059014525 -0.05294056 0.0497926 0.19893217 0.07553015 -0.078139335 0.02033406
-0.040680114 0.025540723 -0.032705955 0.024484925 0.3217863 0.2813191 0.30882597 0.0026375095
0.21183386 -0.05079261 -0.005868891 -0.01388048 0.063932076 0.27058652 0.031797297 0.018681528
-0.025959203 0.012553861 0.17279251 -0.033654403 0.14050777 -0.0042187246 0.31567815 0.10805378
0.08878334 0.2032903 -0.08928652 -0.19389036 0.11735635 0.25530484 0.24745737 -0.04988355
-0.14105853 -0.23181316 -0.17394419 -0.22762914 0.043933235 -0.1469297 0.1014349 -0.08612452
0.037092883 -0.04024783 -0.06894878 0.11321033 -0.2669095 0.13384204 0.015029644 0.113743626
0.043454368 -0.1701582 0.085669324 -0.14599216 -0.26399526 -0.38520807 0.10995027 -0.17038661
-0.23310737 -0.014150771 0.021001158 -0.09459118 0.027712096 -0.024203362 0.09931987 -0.045360345
0.011093003 -0.13902685 -0.081956916 -0.0938989 -0.38496378 -0.25941262 -0.14213642 0.10189928
-0.2027959 0.105434075 0.056058686 0.021011444 -0.22359115 -0.25465813 0.17466511 0.06641551
0.075168855 0.043922734 -0.2157225 0.006966272 -0.10189644 -0.015577903 -0.36599693 -0.17107864
-0.13397232 -0.14994268 0.17113595 0.13578299 -0.23869823 -0.16298772 -0.34660995 -0.03580514
-0.22923571 -0.29702476 -0.299826 -0.42645934 0.040268663 -0.2437003 0.043394197 -0.053238805
-0.010463356 0.0018725385 -0.06878148 0.0041678203 -0.031949647 -0.010606863 -0.031509895 0.09630266
0.057181366 -0.25744045 0.041093476 -0.39149392 -0.34268293 -0.31778842 0.06959032 -0.07622766
-0.27805847 -0.269706 -0.040503576 -0.24750301 -0.21479523 0.043059357 0.043348495 -0.24466076
0.1117726 -0.38295552 0.11891007 -0.14821292 -0.43572378 -0.1308556 -0.06349831 0.035062723
-0.2620268 0.009676907 0.043538243 0.019537695 -0.1823583 -0.33239573 -0.009483578 0.023756051
-0.028668242 0.12927288 -0.2364945 0.065498315 -0.26231086 -0.011376476 -0.30954295 -0.1469842
-0.22770604 -0.33869553 0.099367306 -0.007776861 -0.09140643 -0.1230111 -0.09082047 0.20229377

net.3.bias f4 [32]
00000000: 70b8 803d 3c9a c7bd 8e82 c63e df84 873e
00000010: 23d7 a93e b472 af3e f453 dc3e 2a3d 943e
00000020: 4d16 3bbe f588 44be 6bc8 d03e 6fe0 923e
00000030: e43e 333d aa36 4fbe ce9c 813e 5b28 903e
00000040: 1c3b 9dbe 3c86 1bbe 8d2a 793b 9e57 93be
00000050: dee0 f83d 7dca a23e 94a8 3b3e 0d49 8dbe
00000060: 7d57 da3e 27d3 f4bd 09cf a63e b22d 94be
00000070: fb4d 00be d41a a1be ed9f b33e 7623 943e
0.06285179 -0.09746215 0.3877148 0.2646856 0.3317195 0.342672 0.430328 0.28952914
-0.18270226 -0.1919287 0.40777907 0.28686854 0.04376115 -0.20235696 0.25314945 0.2815579
-0.3070916 -0.15187925 0.0038019747 -0.28777784 0.12152265 0.3179511 0.18326026 -0.27594796
0.42644873 -0.119543366 0.3257983 -0.28941113 -0.12529747 -0.3146578 0.3508295 0.28933305

net.6.weight f4 [1, 32]
00000000: b2ec afbe e8ef 61be 820b 523e e5e9 e53e
00000010: 157d 583e d597 193e 3352 113f 752e e83e
00000020: db7f 68be c641 97be bc2e 963e f14c 4f3e
00000030: 6f56 f2be a2f1 b2be e6d5 6a3e 51eb 173f
00000040: ed9e fdbe 5780 27be 7d4a 71be 4f5a aebe
00000050: c35e d1be 22d3 f33e 77e3 e73e 00bd 89be
00000060: bb01 3b3e 6196 acbe 20ec 563f e345 cdbe
00000070: 67fb 97be d668 adbe 3dd0 6d3e 126a af3e
-0.34360272 -0.22064173 0.20512202 0.4490501 0.21141465 0.14999326 0.5676605 0.45347944
-0.22705023 -0.2954237 0.2933253 0.20244195 -0.4733157 -0.34949976 0.22933158 0.5934344
-0.49535313 -0.16357552 -0.23563571 -0.34053275 -0.4089261 0.4762202 0.4529073 -0.26902008
0.18262379 -0.3370848 0.8395405 -0.40092382 -0.29683992 -0.33869046 0.23223968 0.34260613
