src/saved_model_nn.pth (torch, 18025 bytes, 5 tensors)

net.0.weight f4 [64, 24]
00000000: b2c2 a13d 41cf 593d e623 d53b a50f 883e
00000010: bf51 ac3c a15b 2b3d 761f 6abe 0869 343e
00000020: e046 afbd 9bdf e3bb 36d8 033e fed1 e73c
00000030: 11cb 1cbe 1978 1dbe 7ec6 a9bd b629 8cbc
00000040: 79ca 243e 81f1 27be f990 b4be 66a6 7e3d
00000050: 2b3c ddbd 7b96 5d3d 678b 633d 8b21 be3d
00000060: f32b d4bd f426 1dbf 8bad df3c bea5 39be
00000070: 0d32 2d3d e060 b8bd 57c0 323e 5ee6 0a3e
00000080: 9ba4 be3d 83f8 f33d cecf cabc 354c 8f3e
00000090: 715e afbd 8899 5e3e a64c 9a3d c6dc f0bc
000000a0: f533 f53a 8a53 943e 0731 983e c53f a13d
000000b0: ec21 27be a28d ccbb aa8a 2c3d 25c6 92bd
000000c0: 6220 533d 16ce a5be 271d a3bd dbf0 16bd
000000d0: 2137 10bf 8d62 f3bb 0a74 0e3e 37ee e43e
000000e0: acc6 173e 4277 2a3d 2a62 ee3d 1ee2 443e
000000f0: 7d79 0fbd 1167 1dbd 0a24 283e bacf 13bd
00000100: 7018 a63c 6b03 523e a039 283e dd63 3fbc
00000110: 6192 36be dece 00bd 94bb 52bd 686d 98bd
00000120: 2630 e63d b134 60bd 8d18 a7be 4be5 21bd
00000130: aa16 a5bd a624 eeba 9ddd 663e d591 4d3f
00000140: 7e15 5abd ac30 49bc 99da 2e3d 23b8 0a3d
00000150: 7c1a 0f3f c91e b6bd fa5c 9c3d 3042 f83c
00000160: 9e63 f7bc f056 c63d 1eab 1f3d 4f9c ad3d
00000170: 9fbe 76bd fab3 0fbd 4232 78bd ca00 c9bd
00000180: fc62 a03d 88b5 b43c 8de3 bb3d 908f 0abe
00000190: 26f3 2e3d dd01 bcbc 8f7e e83d 4338 81be
000001a0: 3c14 13be 4123 92bd 81a0 87bd 27b1 c4be
000001b0: bcea 3ebe 56d9 9bbe bc87 ef3c d40b 583b
000001c0: bb44 2c3c 921f b8be 12f7 cbbe 4d23 31bd
000001d0: 4424 2e3e 79f7 0e3e d643 2cbd c51f 363c
000001e0: 9ad0 c73d 7dee 2ebe 07a3 dd3c 04a7 26be
000001f0: 20cc d3be babd cabd fe60 d1bb b170 d13e
00000200: d95e 6d3e e9c1 a13d 0090 cd3d 495c 803e
00000210: 53a7 8dbe 307a 2b3e 98b2 f4bc d04a 843c
00000220: 317c 81bd 4e97 963e 21f0 6a3e de6c 723d
00000230: 32d0 2abe c665 d4bd 0894 96bd 9119 32be
00000240: 4da4 f4bc 2728 413d 6b85 cd3d a4b6 9e3e
00000250: cdf9 663e 515c 0c3c 95d6 ecbd 698f d3bd
00000260: 373f 60be 6862 c5bd ec1e 793d 5185 32be
00000270: c69d dfbd c81a d2bd 035c ddbd 6259 aabc
00000280: 2544 a9bc f77a 78be cfab 47be 2d14 60be
00000290: 60fd 823e d824 2e3c 5440 1f3d c036 563e
000002a0: 0e59 ac3d 4b0e 07bd 2000 85bd 411f 45be
000002b0: 72a8 533e 71e2 b1bd ca58 453c 31db c93e
000002c0: f1a6 83be d98b d43d af9e 5d3e b970 893d
000002d0: 45fb ac3e 48cc 873d 922e f9ba 9a14 87bc
000002e0: 5336 ce3d 064a a73e f15e bb3c 66c5 1c3c
000002f0: b0a0 a5bd 285e c63c 7e63 83bd e360 00be
00000300: 416d 233c 064f f23d 67eb 513d c878 883e
00000310: 38cd b93c 6b9f eebc e81a 5b3c 735f 6f3d
00000320: 3084 b1bd 6ff4 58be 02b5 0d3e 9991 89bd
00000330: 8f9a 67be 1c96 38be 844a 3abe e2de 22be
00000340: 8fa7 ef3c 90d3 23be 1fa4 0abe 8f14 2dbd
00000350: 3c09 4fbe 73f5 64bc 8dee 0a3e fec7 653e
00000360: 2eb0 1c3c 94c1 19bb dfa0 c73d 6183 cb3d
00000370: ca1f e43c 28ba 593d 126f 87bd 89f7 873d
00000380: acb5 6cbe 579c 84bd 22eb 613d 693e ebbd
00000390: d9e6 69be fdc8 c8be 4bb0 b6be f8a8 173e
000003a0: f7db 223e 8271 20be 100a 8bbd acc4 90bd
000003b0: e92a bdbc 7099 a53c f942 7abd bf72 0e3e
000003c0: 36c9 a83d 2807 80bd 7446 d93d 0e57 b1be
000003d0: 8913 97be 7362 81be 4f80 02be 0b34 bf3e
000003e0: 4796 463d d654 6c3e 102b 333d bd35 1d3e
000003f0: c851 9ebe df2f 853c eb94 593d 23bb acbb
0.07898463 0.05317617 0.0065045236 0.26574436 0.021035073 0.04183543 -0.22863564 0.17618191
-0.0855844 -0.006954146 0.12875447 0.028298374 -0.15311839 -0.15377845 -0.082898125 -0.017109733
0.16092862 -0.1640072 -0.35266855 0.06217041 -0.10802492 0.054098587 0.055552866 0.092837416
-0.10359945 -0.6138756 0.027304431 -0.18129632 0.04228406 -0.090028524 0.17456184 0.1356444
0.0930874 0.11912634 -0.024757292 0.2798783 -0.08562935 0.21738255 0.07534151 -0.029402148
0.0018707501 0.28969985 0.29724905 0.07873491 -0.16321534 -0.00624247 0.042124428 -0.07166699
0.051544555 -0.32383794 -0.07964545 -0.03685079 -0.5633412 -0.0074275197 0.13911453 0.44712994
0.14821881 0.04161764 0.11639817 0.19226882 -0.03502797 -0.03842837 0.16419998 -0.036086775
0.020275325 0.20509116 0.16428232 -0.011681524 -0.17829277 -0.031447284 -0.05144842 -0.074427426
0.11239652 -0.05473775 -0.32635918 -0.03952531 -0.080609635 -0.0018168881 0.22545476 0.8030065
-0.053243153 -0.012279671 0.04268894 0.033867013 0.55899787 -0.088925906 0.07634921 0.030304998
-0.030198868 0.09684551 0.03898155 0.08477079 -0.060240384 -0.03508375 -0.060594805 -0.098146036
0.0783138 0.022059217 0.09174261 -0.13531327 0.042712353 -0.022950107 0.11352264 -0.25238237
-0.14363188 -0.071356304 -0.066224106 -0.38416407 -0.18644232 -0.30439252 0.029239528 0.0032966034
0.0105144335 -0.35961586 -0.39836937 -0.043246556 0.17006022 0.13961591 -0.04205688 0.011115973
0.097565845 -0.17083164 0.027055277 -0.16274649 -0.41366673 -0.09899469 -0.006389736 0.4090629
0.23180713 0.078983136 0.100372314 0.25070408 -0.2766672 0.1674583 -0.029870316 0.016148955
-0.06322516 0.2941231 0.22943164 0.059185855 -0.16680983 -0.10370974 -0.073524535 -0.17392565
-0.029863501 0.047157433 0.10035213 0.3099872 0.22556229 0.008566932 -0.11564366 -0.10330088
-0.21899115 -0.0963791 0.060820505 -0.17433669 -0.10918765 -0.10259014 -0.108085655 -0.020794574
-0.020662377 -0.24265657 -0.19499134 -0.21882696 0.25583935 0.010628901 0.038879707 0.20919323
0.08415423 -0.032972615 -0.064941645 -0.19250204 0.20669726 -0.086857684 0.012045095 0.39425042
-0.25713304 0.10378236 0.21642564 0.06710953 0.33785453 0.066307604 -0.0019011071 -0.016489316
0.10068955 0.32673663 0.02287242 0.009568548 -0.08087289 0.02421482 -0.06415461 -0.1253696
0.009974779 0.11831479 0.051249888 0.2665465 0.022680864 -0.02912875 0.013373114 0.058440637
-0.08667791 -0.21186994 0.1383858 -0.06717224 -0.22617553 -0.18026012 -0.18192488 -0.15905336
0.029254703 -0.15998673 -0.1353917 -0.042255934 -0.20218366 -0.013974535 0.13567562 0.22439572
0.009563489 -0.0023461329 0.097474806 0.09937168 0.02784719 0.053156048 -0.06612982 0.066390105
-0.23116177 -0.06475132 0.05515588 -0.11486513 -0.22841968 -0.39215842 -0.35681376 0.1481055
0.15904222 -0.156683 -0.06789029 -0.07068762 -0.02309175 0.020214766 -0.061099026 0.1391096
0.08241503 -0.06251365 0.10609141 -0.3463673 -0.29507092 -0.25270423 -0.12744258 0.37344393
0.04848316 0.23079237 0.04374224 0.15352531 -0.3092177 0.016258178 0.053120535 -0.005271332

net.0.bias f4 [64]
00000000: 9cfc 5dbd 4497 7abe f080 88be 2991 e6be
00000010: 6c4e 57bc 8886 83be 7c12 923d 9d50 3ebe
00000020: 7adc 74bd 5966 33be 71b0 80bd 6b37 b23d
00000030: 2299 95be d747 ebbd 521d b4bc 6231 0fbe
00000040: 0b04 963d 3f9e fbbe ba20 093e 5d38 b5be
00000050: 50cf 6cbe c226 30bf cdd3 bdbe 10f3 24bf
00000060: 6f4b 38be a709 46be 80d9 cf3d 014e 22be
00000070: 593f 9ebe 2e2f d8bd 6b01 053e f107 7cbe
00000080: 766a 843d 5525 febd c62c 1b3e bc6c c1bd
00000090: 30ea d7be 2ba4 33bf e96d eebd 979f 0ebe
000000a0: d1e1 a5be e2a1 fdbb e6f6 a8bd a99a e93c
000000b0: fb9e 6fbe 01e3 2cbe 8b9a 3abe b42f 953d
000000c0: 2d0e 243c 66e9 b43d 714d 89be 381e 8f3c
000000d0: e14b ecbd f903 623e f74a dbbe 47ca 86be
000000e0: 6eea b7be 7107 00bf 2c1a 103e d8d3 a0be
000000f0: b70b 3abe 98a2 60be 7720 c2be 98e2 743d
-0.054195985 -0.24471766 -0.26660872 -0.45032623 -0.013141256 -0.25688577 0.07132432 -0.18585439
-0.059780575 -0.17519511 -0.062836535 0.087019764 -0.29218394 -0.11488312 -0.021986637 -0.13983682
0.0732499 -0.4914417 0.1339139 -0.35394564 -0.23125958 -0.6880914 -0.37075654 -0.64433384
-0.17997526 -0.1933962 0.10148907 -0.15850069 -0.30907705 -0.10555874 0.12988822 -0.24612404
0.06465618 -0.12409464 0.15153798 -0.094445676 -0.42170858 -0.70172375 -0.116420574 -0.13928066
-0.32398847 -0.007740245 -0.08250217 0.02851613 -0.2340049 -0.1688347 -0.18223016 0.07284489
0.010013145 0.0883358 -0.26816896 0.017470464 -0.1153791 0.22071828 -0.4283063 -0.263262
-0.35921043 -0.50011355 0.14072484 -0.31411624 -0.18168531 -0.21937025 -0.37915394 0.05978641

net.3.weight f4 [32, 64]
00000000: 2aa5 89be c1ab 943d f825 713c 2b89 543e
00000010: 690a 73be 5b02 873e 7d38 96be aa27 043e
00000020: c5cc 4abd 6361 ba3c 6f88 3f3e fc09 92bd
00000030: bcab be3d a586 01be 5645 d73c e1bb 76be
00000040: b84e bfbc cc91 3b3e 131a f2bd ccb2 363e
00000050: 5536 1a3e 8be8 903e 89b3 2bbe a039 c23e
00000060: 3a18 973e 49fd 733d cbdc 5b3c 1612 013e
00000070: 7c80 373e 47a7 27bd e41b e1bd 7df1 ab3d
00000080: b54b ddbd 0449 033e a971 c0be 0011 093d
00000090: 7d82 b73d 1d1c b93e ddeb 7ebd 7a81 593d
000000a0: 3089 573e 1124 19be 4ec3 f5bd 336e 35be
000000b0: a4ca b53c 1f59 813d df72 f93d 03ec c5be
000000c0: 883d 0bbe 14c0 38be fbed eb3d 2414 3cbe
000000d0: 86db aa3d d945 12be b736 ba3e b1ff 3e3d
000000e0: 0ed5 163e 6876 a63b 6beb 9fbd 7327 4dbe
000000f0: dd02 1a3e 3ed9 5d3e 1578 cf3e a5ec aebd
00000100: 9641 92bd 7836 9f3d 7a91 193d d986 cd3e
00000110: 5977 11be 6f00 8a3c 90df 88bd 5919 163e
00000120: 82c0 0ebd 3dee 9dbc a12f 913d ff1a 823b
00000130: 8f34 383e 33d1 143b 588a 78bd 16f5 14be
00000140: f3d8 04bd c6b3 333e 689f 2d3c daec 943e
00000150: cdf2 733e f334 be3e 1f3d 5fbe cda6 cd3e
00000160: bfd7 b03d c521 533d 268e 04bd 1903 a13c
00000170: bb7f 453e e210 e93d 31a7 acbd a24b 1f3d
00000180: a44f 59bb 42bd 8d3d 1dd7 d0bc 30b6 833b
00000190: eba6 553e 72ad dd3e 92f2 143e 7628 10bd
000001a0: f9e5 643e de01 d6bd 62e7 a53c b02d eb3c
000001b0: 0fee 9a3d 82c4 7a3e 7ccf b9bb 30f0 1c3d
000001c0: 67cf c6bc 6c70 bebb eb2f 4b3e b57b 32bd
000001d0: 314e 093e c80f 79bc 73a7 ab3e e825 da3d
000001e0: 9000 ac3d 5929 783e ce6d 11be fa4f 48be
000001f0: 2499 b33d 2866 563e 3e81 713e 562c 47bd
00000200: 3b0f 0e3d d5bc 9bbe 8d0e c6bd 7b71 9ebe
00000210: 8cb2 383d d4e8 f8bd 5c18 d43d 0bc4 a2bd
00000220: 18ba fa3c d0d8 c4bd 0c4e 0ebe 4963 cb3d
00000230: f1de 78be 7d5c 853d b2d1 4e3a 2214 f23d
00000240: dbea 233d c340 4fbe 21b4 0c3d 0802 1abe
00000250: 26d4 4cbe edbe a0be 43a0 c43d ec39 17be
00000260: 92e3 81be 3715 17bd 4575 4abd a7ba 19be
00000270: 2de4 3e3d 16fb 91bd 8395 883d a4b3 b7bd
00000280: 850b d0bb 3b83 61be 096a a1bd 70bd ebbd
00000290: 5612 cfbe c608 c1be 2f82 093d 291d 593d
000002a0: a881 56be 3f5b 953d bdc9 763d 4c70 2dbc
000002b0: 3e44 a9be a4a3 8dbe cae5 373e 7e64 383d
000002c0: 8433 873d cf03 90bc abdb 59be c478 b3bc
000002d0: 6d8e 5dbe 0bda 1fbd 63e6 e3be 5e27 60be
000002e0: 0e3e 3cbe a245 1ebe aafc 093e 441e 0b3e
000002f0: f1b9 94be 7b59 48be 77b1 aebe 7dd9 aabd
00000300: 7f7a 4dbd dfa1 7bbe b75f aabe 7744 f9be
00000310: 9f43 7f3d 5d3b afbe 47a8 4c3d 1174 da3c
00000320: fc68 b3bd 7950 983d b312 8dbe e326 c3bc
00000330: 600b 9abd d911 08be 0c99 8fbd e352 073e
00000340: c201 9c3d 7db1 86be 350a 1e3d aaff e0be
00000350: 06e3 d0be 4340 b3be 05d9 d73d bd16 56be
00000360: 3f71 96be 5255 90be 959e 68bd a853 c7be
00000370: 6e70 16be 9363 ecba f45b 293d 40ea 90be
00000380: fa7a e83d bd7c dfbe 1252 c13d a733 a8be
00000390: e2b3 cabe c0d3 b6be 612a 8a3c 5348 1b3d
000003a0: 5b35 d0be 8336 28bd ef81 d63d 9d8f c53d
000003b0: d58a b9be c96b 89be 4364 223d eac2 723d
000003c0: 9d20 073c 1587 093e 6cf3 82be dfb1 5c3d
000003d0: 58b3 99be a603 bd3c 48ae acbe d68f 62be
000003e0: 64ee a5be 6616 95be 462a 5d3d b0fe a93c
000003f0: 9667 c8bd 14ab f4bd 591c f5bd 32fa 133e
-0.26883823 0.07259322 0.014718525 0.2075545 -0.2373444 0.26368985 -0.29339972 0.12905756
-0.04951169 0.022751516 0.18704389 -0.071308106 0.093100995 -0.12649019 0.02627818 -0.24095108
-0.023352966 0.18317336 -0.118213795 0.17841643 0.15059789 0.28302416 -0.16767706 0.3793459
0.2951067 0.059567723 0.01341934 0.12604555 0.17920107 -0.040931012 -0.10991648 0.083956696
-0.108054556 0.12820822 -0.37586716 0.033463478 0.089604355 0.3615426 -0.062236656 0.053101994
0.21048427 -0.14955164 -0.12000142 -0.17717819 0.022191353 0.063158266 0.12180113 -0.38656625
-0.13597691 -0.18042022 0.115200005 -0.18367058 0.08342652 -0.14284457 0.3636987 0.046630565
0.14729711 0.005080033 -0.07808574 -0.2003458 0.15040155 0.21664903 0.40521303 -0.0854123
-0.07141416 0.07774061 0.037492253 0.40141943 -0.14205684 0.01684591 -0.06683266 0.14658107
-0.03485156 -0.01927864 0.070891626 0.0039705033 0.179888 0.00227077 -0.06067881 -0.14546618
-0.03243346 0.17549047 0.010597087 0.29086953 0.2382309 0.37149772 -0.2180066 0.4016632
0.086349 0.051545877 -0.032362126 0.019654797 0.19287007 0.11380173 -0.08430327 0.03889049
-0.0033159042 0.06920864 -0.025493199 0.004019521 0.20864455 0.4329639 0.14545658 -0.035194837
0.22353353 -0.10449575 0.020251933 0.028708309 0.07564937 0.24489024 -0.005670486 0.038315
-0.024268819 -0.0058117416 0.19842498 -0.043575007 0.13408734 -0.015201516 0.3352619 0.10651761
0.08398545 0.24234523 -0.14202043 -0.19561759 0.08769444 0.20937407 0.23584458 -0.048626266
0.034682494 -0.30417505 -0.09670744 -0.30945954 0.04509215 -0.121537834 0.10356209 -0.079475485
0.030606315 -0.09611666 -0.1389696 0.099310465 -0.24303795 0.06511781 0.00078895234 0.11820246
0.040018898 -0.20239548 0.03435147 -0.15039837 -0.20002803 -0.31395665 0.0960088 -0.14768189
-0.25368935 -0.036885466 -0.049428243 -0.15012608 0.046604324 -0.07127969 0.06669142 -0.089698106
-0.0063490295 -0.22022717 -0.07881553 -0.11510742 -0.40443677 -0.37702006 0.03357142 0.053006325
-0.20947897 0.072927944 0.060250986 -0.010585856 -0.33059877 -0.2766391 0.17958751 0.04501771
0.06601623 -0.017579941 -0.21275203 -0.021908171 -0.21636362 -0.0390263 -0.4451171 -0.21890017
-0.18383047 -0.1545625 0.1347529 0.13585764 -0.29048112 -0.19565384 -0.3411977 -0.08342264
-0.05016565 -0.24573468 -0.3327615 -0.48685047 0.062320348 -0.34224978 0.04996517 0.026666673
-0.087602586 0.07437224 -0.2755333 -0.023822254 -0.07521701 -0.13288058 -0.07011613 0.13215213
0.07617523 -0.26307288 0.038583953 -0.43945056 -0.40798205 -0.35009965 0.1053944 -0.20907111
-0.29383275 -0.28190094 -0.05679186 -0.38931012 -0.14691326 -0.0018035047 0.04134746 -0.2830372
0.11351581 -0.43649855 0.09439482 -0.32851908 -0.39590365 -0.35708427 0.016865911 0.03791077
-0.40665707 -0.04106761 0.104740016 0.09646533 -0.36238733 -0.26840046 0.0396464 0.059267916
0.008247522 0.13430436 -0.2557634 0.05388057 -0.3001964 0.023073029 -0.33726716 -0.22125182
-0.3240844 -0.2911865 0.053995393 0.020751327 -0.097853824 -0.11946693 -0.119682975 0.1445091

net.3.bias f4 [32]
00000000: 4c81 6d3d d034 cfbd de95 ad3e 74c0 903e
00000010: a534 aa3e 469d a83e 5ed6 d13e 8531 713e
00000020: ea6a 24be f194 47be f9a9 d23e 26e2 863e
00000030: cb64 e43c 39ca 2fbe 2961 523e dbcf 923e
00000040: ab16 80be cd1e 22be 8c94 81ba 14e4 90be
00000050: ad08 2a3e 8985 a73e 5c55 583e 1bfe 9ebe
00000060: 890e e23e 3586 03be 0ca3 ab3e 45a0 98be
00000070: 9480 2bbe b255 96be 049b b33e fb0a 923e
0.057984635 -0.10117495 0.33903402 0.2827183 0.3324329 0.3293249 0.40983862 0.23554046
-0.1605641 -0.1949041 0.41145304 0.26344413 0.027880093 -0.17166986 0.20544876 0.28674206
-0.25017294 -0.15832062 -0.0009886189 -0.2829901 0.16604872 0.32719067 0.21126312 -0.31053242
0.44151714 -0.12844165 0.33522832 -0.29809776 -0.16748267 -0.29362255 0.35079205 0.28524002

net.6.weight f4 [1, 32]
00000000: f7be a2be f8a0 55be 70fb 633e fc74 263f
00000010: 6447 393e a056 0f3e d0fb 123f df11 b63e
00000020: 8d10 56be daf0 8bbe 4373 973e b86e 5e3e
00000030: 2520 fbbe 89d0 95be 2dc8 6a3e e039 0f3f
00000040: 0eff 00bf 89ce 21be 08d2 70be 55af a2be
00000050: 209a c9be eeda fc3e dd48 da3e e110 7cbe
00000060: db06 233e dfb7 b1be 74a3 5a3f 8e02 c9be
00000070: 1acf 88be 0079 92be db87 4c3e 9ed6 b33e
-0.3178632 -0.20862186 0.22263885 0.65022254 0.1809364 0.13997889 0.57415485 0.3556051
-0.20904751 -0.27332193 0.29580125 0.21721923 -0.49047962 -0.29260662 0.22927924 0.55947685
-0.5038918 -0.15801443 -0.2351762 -0.31774393 -0.393754 0.4938578 0.42633715 -0.24615814
0.15920584 -0.34710595 0.8540566 -0.39259762 -0.26720506 -0.2860794 0.199737 0.35124677
